trained_generator/tflite_quant_model.tflite (tflite, 151664 bytes, 12 tensors)

lstm_4/lstm_cell_7/bias f4 [256]
0	0xbc368896	-0.011140963
1	0x3b58809d	0.0033035644
2	0x3ce9baac	0.028531395
3	0x3c20f963	0.009825083
4	0xbc997dfd	-0.018736834
5	0xbcb3738f	-0.021905689
6	0xbbc5a74d	-0.0060319067
7	0xbc1fe308	-0.009758718
8	0xbbce9376	-0.0063042
9	0xbc60a819	-0.013711953
10	0xbd037f75	-0.032103974
11	0xbcc6c4fc	-0.024263851
12	0x3bbdfe92	0.0057981694
13	0xbd4ac7ea	-0.04950706
14	0xbc880f22	-0.016608778
15	0xbcdcb6fc	-0.026942722
16	0xbcd6a84d	-0.026203299
17	0xbd1a10ea	-0.037613787
18	0xbbc000e7	-0.0058594826
19	0x3d165b16	0.03670796
20	0xbd41bee1	-0.047301177
21	0xbd3e8931	-0.046517555
22	0xbc914dab	-0.01773723
23	0xbce4bc37	-0.02792178
24	0xbcdc7da0	-0.026915371
25	0x3d4722e6	0.048617266
26	0xbc4a1055	-0.012332995
27	0xb9bab34a	-0.00035610265
28	0xbd174316	-0.036929213
29	0xbd03d941	-0.03218961
30	0xbd111e10	-0.03542906
31	0xbc9de315	-0.01927332
32	0xbbb51ef9	-0.005527374
33	0xbc0d5d9a	-0.008628273
34	0xbc70b877	-0.014692417
35	0xbbe36a76	-0.0069401814
36	0x3cd388b5	0.025822023
37	0x3cb76c45	0.022390494
38	0xbcd31dbd	-0.025771016
39	0x3d103866	0.035210036
40	0x3d2bb638	0.041921824
41	0xbcbe5442	-0.023233537
42	0xbd25864c	-0.04041128
43	0x3ae32c8f	0.0017332005
44	0xbccb78fb	-0.024837961
45	0xbca345dc	-0.019930772
46	0x3c844089	0.016144054
47	0xbcce36b9	-0.025172578
48	0x3c6aa6e4	0.014322016
49	0xbc4b9a43	-0.012426916
50	0x3c2d1a77	0.010565392
51	0x3c93078f	0.01794794
52	0xbc19b6da	-0.009381974
53	0xbc1496f3	-0.009069192
54	0x3c9bdbe3	0.019025749
55	0xbc52a46d	-0.012856585
56	0x3c936dcb	0.01799669
57	0xbb2c9bee	-0.0026338059
58	0xbcbed7f4	-0.023296334
59	0xbce5097d	-0.027958626
60	0xbc1b68d7	-0.009485445
61	0xbc2049a1	-0.0097831795
62	0xbc013971	-0.00788723
63	0xbc732b2f	-0.014841839
64	0x3f825545	1.0182272
65	0x3f818e23	1.0121502
66	0x3f82e886	1.022721
67	0x3f831013	1.023928
68	0x3f81ace9	1.0130893
69	0x3f869c36	1.0516422
70	0x3f840ae9	1.031583
71	0x3f888e55	1.0668436
72	0x3f81c2dd	1.0137593
73	0x3f848d4c	1.035562
74	0x3f8841db	1.0645097
75	0x3f81981b	1.0124544
76	0x3f838305	1.0274359
77	0x3f857678	1.0426779
78	0x3f827e61	1.0194818
79	0x3f7bdf3d	0.9838751
80	0x3f7fb095	0.9987882
81	0x3f882edb	1.0639299
82	0x3f8859f8	1.0652456
83	0x3f7fc68c	0.99912333
84	0x3f8810f0	1.0630169
85	0x3f84975a	1.0358689
86	0x3f814833	1.0100158
87	0x3f8ae25d	1.085033
88	0x3f83cf20	1.0297585
89	0x3f863a5c	1.048656
90	0x3f845854	1.0339456
91	0x3f82c44e	1.0216157
92	0x3f7de9db	0.9918496
93	0x3f868e7c	1.0512233
94	0x3f85818d	1.0430161
95	0x3f86f937	1.0544804
96	0x3f822726	1.0168197
97	0x3f8428c0	1.0324936
98	0x3f82e046	1.0224693
99	0x3f844974	1.0334916
100	0x3f830070	1.0234509
101	0x3f801f3b	1.0009531
102	0x3f874538	1.0567999
103	0x3f8521f2	1.0400984
104	0x3f820308	1.0157175
105	0x3f7f2d3e	0.9967841
106	0x3f86547a	1.049453
107	0x3f81159e	1.0084722
108	0x3f8a9a98	1.0828428
109	0x3f843664	1.0329099
110	0x3f7d5aa8	0.98966455
111	0x3f87f3b1	1.0621244
112	0x3f83893e	1.0276258
113	0x3f88d9d7	1.069148
114	0x3f839f81	1.0283052
115	0x3f873f91	1.0566274
116	0x3f849f0c	1.0361037
117	0x3f82c650	1.021677
118	0x3f83da22	1.0300944
119	0x3f828a20	1.0198402
120	0x3f7f9397	0.9983458
121	0x3f8232fb	1.0171808
122	0x3f8c3a27	1.0955247
123	0x3f7e0794	0.99230313
124	0x3f82232c	1.0166984
125	0x3f81b3b7	1.013297
126	0x3f7f81c3	0.99807376
127	0x3f7f2860	0.9967098
128	0xbb8a47a3	-0.0042199655
129	0xb9f7d014	-0.00047266542
130	0x3ad63cfb	0.0016345078
131	0xbbdb1944	-0.0066863615
132	0xbb0b46b5	-0.0021251861
133	0xb9d09fd5	-0.00039791936
134	0xbbfc9d20	-0.0077091604
135	0xbbe1bfec	-0.006889334
136	0x3badbd25	0.005302089
137	0xbc0ee1f1	-0.008720861
138	0x3c236d9c	0.009974863
139	0xbb8629f3	-0.004094356
140	0x3c186a96	0.009302756
141	0xba1a71a4	-0.00058915676
142	0x3b4b7dfc	0.0031050434
143	0xbc0616d7	-0.008184156
144	0xbb613811	-0.0034365694
145	0x3a129fff	0.0005593299
146	0x3be581f8	0.007004019
147	0xbbcdb5ad	-0.006277761
148	0xbb3f343c	-0.0029175421
149	0x3c16f8f5	0.009214629
150	0x3c3fdb3c	0.011709984
151	0xbc353c9d	-0.011061815
152	0xbbd135d1	-0.0063845892
153	0xbae96789	-0.0017807345
154	0xbbe7ecd6	-0.0070777936
155	0xbc2aca64	-0.01042423
156	0xbbd550e8	-0.006509889
157	0xbb31c3ea	-0.002712483
158	0xbc07d85e	-0.008291332
159	0xba6e0298	-0.0009079366
160	0x3ca4d64a	0.020121712
161	0xbbe986b9	-0.007126656
162	0xbbeccdfa	-0.0072267028
163	0x3b400dc8	0.002930509
164	0xba0816f9	-0.00051914115
165	0x3af0b930	0.0018365737
166	0x3b21e489	0.0024702868
167	0xbc016ec0	-0.00789994
168	0xbc1600b7	-0.009155444
169	0x3b501115	0.0031748463
170	0x3b091165	0.002091491
171	0xba5ad782	-0.0008348153
172	0xb9ffecff	-0.00048813966
173	0xbc414569	-0.011796334
174	0x3b836850	0.0040102378
175	0x3a393c56	0.00070661807
176	0x3b0016e0	0.0019544885
177	0xbc6a9b9c	-0.014319327
178	0xbb8b2f91	-0.0042476137
179	0x3aee30c7	0.0018172496
180	0xbbd9e127	-0.0066491547
181	0xbc35ee9f	-0.011104255
182	0x3b52f792	0.003219102
183	0x3ad8e237	0.001654691
184	0xbba34656	-0.00498275
185	0xbb050429	-0.002029667
186	0xbb8496b9	-0.004046288
187	0x3c16f2b2	0.0092131365
188	0xbc4b4668	-0.012406923
189	0xbc22723a	-0.009914929
190	0x3a871e55	0.0010308722
191	0x3b97e8b5	0.004635895
192	0x3c5100c8	0.012756534
193	0x3ce086cc	0.027408026
194	0x3c7c8bd7	0.0154142
195	0x3d0fc229	0.035097275
196	0x3ca3b06e	0.01998159
197	0x3d8fc17f	0.07019328
198	0x3d233f73	0.03985543
199	0x3d423559	0.047414158
200	0xbc23cd6c	-0.009997707
201	0x3d268f81	0.0406642
202	0x3d0f5551	0.034993473
203	0xbcce79cd	-0.025204564
204	0x3cd599d4	0.026074328
205	0x3d0001d7	0.031251755
206	0xbc2bff70	-0.010497913
207	0x3b850195	0.0040590265
208	0xbce96d85	-0.028494606
209	0x3bf89783	0.007586421
210	0x3d703cc9	0.05865172
211	0x3d2000a8	0.039063126
212	0x3d50a882	0.05094195
213	0x3d1c24d4	0.03812106
214	0xbc704967	-0.014665938
215	0x3d68391e	0.056695096
216	0x3c8eed30	0.017447084
217	0x3d2cfa2c	0.04223077
218	0x3d08b07c	0.033371434
219	0xbbbfc768	-0.0058526285
220	0xbc2c13ff	-0.010502814
221	0x3d06fac4	0.032953992
222	0x3de57d83	0.1120558
223	0x3d77a797	0.06046256
224	0xbb5cd9e9	-0.003369922
225	0xbc393476	-0.011304012
226	0x3d2e395b	0.042535167
227	0x3be05db0	0.006847106
228	0xbcec9941	-0.02888167
229	0x3c733f9b	0.014846708
230	0x3d3190c3	0.043350946
231	0x3d84dd94	0.06487575
232	0x3d93cdd6	0.072169945
233	0xbc6b70ce	-0.014370156
234	0x3cd649e4	0.02615828
235	0x3d868d55	0.06569926
236	0x3b01a403	0.0019781596
237	0x3d0d4138	0.034486026
238	0x3ca13b82	0.019681696
239	0x3d64907d	0.055801857
240	0xbbbc7e32	-0.0057523483
241	0x3cd3f8d5	0.025875488
242	0x3d68ef49	0.056868825
243	0x3d6d04a8	0.05786577
244	0xbc7a0ff3	-0.015262592
245	0x3c3a0eb4	0.011356045
246	0x3d3d083d	0.046150435
247	0x3c3bd84b	0.0114651425
248	0x3cb1c43b	0.021700015
249	0xbbd1bcf7	-0.0064007
250	0x3da8c529	0.0824073
251	0x3cdde267	0.027085496
252	0x3cb17db4	0.021666385
253	0x3cab2aa9	0.020894365
254	0xbc5fc97b	-0.0136588765
255	0x3cad693e	0.021168347

lstm_3/lstm_cell_6/bias f4 [512]
0	0x3ccf9632	0.025340173
1	0x3cf98204	0.030457504
2	0xbcc4efea	-0.024040181
3	0xbd114ed2	-0.03547556
4	0x3c7a5ce5	0.015280937
5	0x3ce53685	0.027980099
6	0x3cdaca2d	0.026707733
7	0x3ca60d20	0.02026993
8	0xbc627994	-0.013822932
9	0x3b612062	0.0034351577
10	0xb6afb3e6	-5.2363494e-06
11	0x3bffe8db	0.007809741
12	0x3d1870fd	0.03721713
13	0x3d909a23	0.07060649
14	0x3d01a3e0	0.031650424
15	0x3b1d5ccf	0.0024011617
16	0xbad7f5c5	-0.0016476443
17	0x3d060a88	0.032724887
18	0x3d285ed3	0.041106056
19	0x3d545415	0.051838
20	0xbd1eca74	-0.038767293
21	0x3c896620	0.01677233
22	0x3cd56ef2	0.02605388
23	0x3d03bbc5	0.032161493
24	0xbcc03deb	-0.023467025
25	0x3a7d4215	0.0009661031
26	0xbb2fc844	-0.0026822248
27	0x3d01b16d	0.031663347
28	0x3cc0af09	0.023520963
29	0x3d58ca2f	0.052927192
30	0x3cb5d1a4	0.022194691
31	0xbd6f019c	-0.058351144
32	0x3d79675f	0.060889598
33	0x3c7e5ab3	0.015524554
34	0x3c60ea02	0.013727667
35	0x3d3df4f1	0.046376172
36	0x3b875fa8	0.004131276
37	0xbcbd2bff	-0.023092268
38	0x3d318c80	0.043346882
39	0x3b67137d	0.0035259419
40	0x3b87ceeb	0.0041445396
41	0x3d3982d2	0.045290776
42	0x3c2fea58	0.010737024
43	0xbc876c30	-0.01653108
44	0x3d10b2bb	0.0353267
45	0x3cb0304b	0.021507403
46	0x3bff6b8a	0.007794802
47	0x3d1f1045	0.038833875
48	0x3c248f7a	0.010043973
49	0x3d720282	0.059084423
50	0x3d1ca594	0.038243845
51	0x3c4b959e	0.012425808
52	0x38eb6dde	0.000112261376
53	0x3d0763fe	0.033054344
54	0xbc0bc1a3	-0.008530053
55	0x3d839400	0.06424713
56	0x3d40b0fa	0.047043778
57	0x3d1eb91c	0.038750753
58	0x3d28574f	0.04109889
59	0x3d01bd08	0.031674415
60	0x3cf0d2d4	0.029397406
61	0xbb256030	-0.0025234334
62	0x3dac6141	0.08416987
63	0x3c8e9bca	0.01740827
64	0x3d259b97	0.040431585
65	0x3c4300df	0.011902063
66	0x3d07a686	0.033117794
67	0x3b8ff455	0.0043931403
68	0x3cb04d27	0.021521164
69	0xbbfe6596	-0.007763575
70	0x3d21d5ba	0.039510466
71	0x3c4ba9b7	0.0124306
72	0x3d2ec784	0.04267074
73	0x3c214cba	0.009844953
74	0x3886d124	6.4285734e-05
75	0x3cffc2b8	0.031220779
76	0x3cda288e	0.026630666
77	0x3ca8b101	0.020592215
78	0xbc83501c	-0.01602941
79	0x3cdd5d23	0.02702195
80	0x3db5d773	0.08878984
81	0x3cb94277	0.0226147
82	0x3c823fa5	0.015899489
83	0x3d6256a9	0.055258427
84	0x3cbbb6d4	0.022914328
85	0x3c51638c	0.0127800815
86	0x3db8e96a	0.09028895
87	0xbcdb78d5	-0.026791016
88	0xbb3f5f6e	-0.0029201168
89	0x3d0f435a	0.03497634
90	0x3dcf1956	0.10112254
91	0x3d50cdf9	0.05097768
92	0x3d14ad6d	0.036298204
93	0xbc6f1db3	-0.014594483
94	0xbbaa1410	-0.00519038
95	0x3ccad361	0.024758996
96	0x3d3c2683	0.045935165
97	0x3cf69b20	0.030103266
98	0xbc2dba1f	-0.010603457
99	0xbd251210	-0.04030043
100	0x3c0fafc9	0.008769938
101	0x3bcfd0b8	0.00634202
102	0x3ce478ea	0.027889688
103	0x3d176d50	0.036969483
104	0x3b4f13c2	0.003159747
105	0xbd728cc6	-0.059216283
106	0xbc873166	-0.016503047
107	0x3c7d7bbd	0.015471396
108	0x3bda6394	0.0066647027
109	0x3c9dc0ce	0.019256976
110	0x3b9f6146	0.004863891
111	0xbcd9b374	-0.026574828
112	0x3d559513	0.05214412
113	0x3cca906e	0.024727073
114	0x3cc7872a	0.024356443
115	0x3d14ae1a	0.03629885
116	0xbc7634cc	-0.015027236
117	0x3c04595d	0.0080779465
118	0xbcaf66b6	-0.021411281
119	0x3cb15e51	0.021651419
120	0x3d650f62	0.055922873
121	0x3d12943a	0.03578589
122	0xbcc9f9fe	-0.024655338
123	0x3ca6df1f	0.020370064
124	0xbbde71bf	-0.006788462
125	0x3d2cbf01	0.042174343
126	0x3cb3df01	0.021956922
127	0x3d87bed2	0.06628193
128	0x3f843f87	1.0331887
129	0x3f856389	1.0421001
130	0x3f7fdb4a	0.99943984
131	0x3f81106e	1.0083139
132	0x3f80290f	1.001253
133	0x3f86c270	1.0528088
134	0x3f7b2da6	0.9811653
135	0x3f852383	1.0401462
136	0x3f797f58	0.97459936
137	0x3f80a065	1.0048949
138	0x3f7c12a6	0.98465955
139	0x3f82bb21	1.0213357
140	0x3f866773	1.050032
141	0x3f892f94	1.0717645
142	0x3f83bcf3	1.0292038
143	0x3f82149b	1.0162538
144	0x3f76c70d	0.9639748
145	0x3f7f3941	0.9969674
146	0x3f86f818	1.0544462
147	0x3f871e97	1.055621
148	0x3f7383a8	0.95122766
149	0x3f80aaf3	1.005217
150	0x3f7053da	0.9387795
151	0x3f7dcdd5	0.991422
152	0x3f81ddbb	1.0145792
153	0x3f8223e1	1.0167199
154	0x3f814c5b	1.0101427
155	0x3f86233d	1.0479504
156	0x3f7ab41e	0.97931087
157	0x3f87deb5	1.061484
158	0x3f80eb44	1.0071797
159	0x3f7a398f	0.9774408
160	0x3f835611	1.026064
161	0x3f859004	1.0434575
162	0x3f77af07	0.96751446
163	0x3f854cb0	1.0414028
164	0x3f7b42b5	0.9814866
165	0x3f795876	0.97400606
166	0x3f85b7f2	1.0446761
167	0x3f8174e4	1.0113797
168	0x3f7d158e	0.98861015
169	0x3f879669	1.0592777
170	0x3f868757	1.0510052
171	0x3f814ad2	1.0100958
172	0x3f80765e	1.0036123
173	0x3f8146ce	1.0099733
174	0x3f82e34a	1.0225613
175	0x3f824e42	1.0180132
176	0x3f839ad2	1.0281622
177	0x3f87c21d	1.0606114
178	0x3f80a244	1.004952
179	0x3f832336	1.024512
180	0x3f868992	1.0510733
181	0x3f87407e	1.0566556
182	0x3f7360a5	0.9506934
183	0x3f8b7937	1.0896367
184	0x3f80f9df	1.0076255
185	0x3f858846	1.0432212
186	0x3f87d5df	1.0612143
187	0x3f834889	1.0256511
188	0x3f85f847	1.0466393
189	0x3f79355f	0.9734706
190	0x3f819b5a	1.0125535
191	0x3f7fde61	0.999487
192	0x3f86abc9	1.0521175
193	0x3f8787c7	1.0588311
194	0x3f7b5b67	0.98186344
195	0x3f7bb71d	0.98326284
196	0x3f849e46	1.0360801
197	0x3f8118df	1.0085715
198	0x3f869032	1.0512755
199	0x3f824a34	1.0178895
200	0x3f856bf2	1.0423567
201	0x3f85678d	1.0422226
202	0x3f840c58	1.0316267
203	0x3f803729	1.0016834
204	0x3f87b279	1.060134
205	0x3f8601ba	1.0469277
206	0x3f7d7ae3	0.99015635
207	0x3f865bc7	1.0496758
208	0x3f87d266	1.0611084
209	0x3f814a02	1.010071
210	0x3f84d65f	1.0377921
211	0x3f870be7	1.0550507
212	0x3f803161	1.0015069
213	0x3f846fa9	1.0346576
214	0x3f81a70c	1.0129104
215	0x3f8705c8	1.0548639
216	0x3f7d9d0a	0.9906775
217	0x3f8500f8	1.0390921
218	0x3f840ab8	1.0315771
219	0x3f84ea90	1.0384083
220	0x3f813651	1.0094701
221	0x3f79258b	0.9732291
222	0x3f7d2400	0.98883057
223	0x3f7ee14d	0.9956253
224	0x3f866166	1.0498474
225	0x3f7a2ce9	0.9772478
226	0x3f7f4260	0.99710655
227	0x3f816264	1.0108151
228	0x3f7964b4	0.97419286
229	0x3f82403e	1.0175855
230	0x3f86d800	1.0534668
231	0x3f8b1b2d	1.0867668
232	0x3f83b868	1.0290651
233	0x3f81e47a	1.014785
234	0x3f804f33	1.002417
235	0x3f841376	1.0318439
236	0x3f824f3d	1.0180432
237	0x3f813965	1.009564
238	0x3f83fdea	1.0311863
239	0x3f799633	0.9749481
240	0x3f889b70	1.0672436
241	0x3f84a2fa	1.0362236
242	0x3f82e6cc	1.0226684
243	0x3f7889c0	0.9708519
244	0x3f7edab3	0.9955246
245	0x3f83aaa2	1.0286448
246	0x3f791d48	0.97310305
247	0x3f82679a	1.0187867
248	0x3f89aade	1.075527
249	0x3f815c4d	1.0106293
250	0x3f7c9a32	0.98672783
251	0x3f8536bc	1.0407329
252	0x3f8598c4	1.0437245
253	0x3f84901e	1.0356481
254	0x3f858a8e	1.0432909
255	0x3f82351c	1.0172458

dense_3/bias f4 [7]
0	0x3bf0f661	0.0073535894
1	0xbd3bd010	-0.04585272
2	0x3d92c80f	0.071670644
3	0xbd4eefee	-0.050521784
4	0xbcdf27d5	-0.027240673
5	0x3a5ae4e5	0.0008350148
6	0x3d0d372b	0.03447644

dense_2/bias f4 [64]
0	0x3b538ce7	0.003228003
1	0x3b646811	0.0034852067
2	0x3d35af15	0.044356424
3	0x3cf17c56	0.029478233
4	0x3d141a27	0.036157753
5	0x3d844482	0.06458379
6	0xbc525774	-0.012838233
7	0x3d84a195	0.06476132
8	0xbcf53f6c	-0.029937468
9	0xbb8eab07	-0.004353884
10	0x3d317884	0.043327823
11	0x3d7ad2d3	0.061236214
12	0xbd3cd59b	-0.046102148
13	0x3dcb6289	0.099309035
14	0xbc95180f	-0.018199949
15	0x3d9812f4	0.0742549
16	0x3d9b7b38	0.075918615
17	0x3d9a1447	0.07523399
18	0x3df55061	0.11978222
19	0x3c711785	0.01471508
20	0x3cc202a2	0.023682896
21	0x3c9c9997	0.019116206
22	0x3cdbd3d8	0.026834413
23	0x3d5ea282	0.0543542
24	0xbc3f6963	-0.011682841
25	0x3d4cc4fe	0.049992554
26	0x3cb0569a	0.02152567
27	0xbcafdcc6	-0.021467578
28	0x3d39245d	0.045200694
29	0xbb547443	-0.003241793
30	0xbd3c0efb	-0.045912724
31	0x3d809248	0.06277901
32	0x3c0d9056	0.008640369
33	0xbb7b3844	-0.0038333097
34	0xbd21829f	-0.03943121
35	0x3dd2380e	0.10264598
36	0xbc250256	-0.010071358
37	0x3d8ea81e	0.069656596
38	0x3d921208	0.071323454
39	0x3c4270db	0.011867727
40	0x3d2f1d56	0.042752586
41	0xbc36bcb8	-0.0111533925
42	0x3d3d5614	0.04622467
43	0x3d887eac	0.06664786
44	0x3cd4ead9	0.02599089
45	0xbd17218d	-0.03689723
46	0x3d14ed83	0.03635932
47	0x3c31479a	0.010820294
48	0x3d4ee15b	0.050507884
49	0x3cd5017e	0.026001688
50	0x3b1e9d3b	0.0024202603
51	0x3db47992	0.0881225
52	0x3d0cfc40	0.03442025
53	0x3a760bca	0.0009385912
54	0x3d758e93	0.059950422
55	0x3ca369c2	0.01994789
56	0xbc8fce0d	-0.017554307
57	0x3ccbbf8d	0.024871612
58	0x3cefd70d	0.029277349
59	0x3da3151e	0.07963012
60	0x3bd562e3	0.0065120324
61	0x3d756aa4	0.059916154
62	0x3d0a7a73	0.033808183
63	0x3c17396f	0.009230002

sequential_1/dense_2/MatMul i1 [64, 64] scale=0.0036796299 zero_point=0
0	0xdf	-0.12142779
1	0xf9	-0.02575741
2	0xdc	-0.13246667
3	0xcd	-0.18766113
4	0x1d	0.106709264
5	0x01	0.0036796299
6	0x2a	0.15454446
7	0xea	-0.080951855
8	0xf9	-0.02575741
9	0x35	0.19502038
10	0xc2	-0.22813705
11	0xf2	-0.05151482
12	0xfc	-0.0147185195
13	0x22	0.12510742
14	0x2c	0.16190371
15	0x08	0.029437039
16	0xaa	-0.31644818
17	0x13	0.06991297
18	0x33	0.18766113
19	0x14	0.073592596
20	0x29	0.15086482
21	0xed	-0.06991297
22	0x26	0.13982594
23	0xfc	-0.0147185195
24	0xf8	-0.029437039
25	0xc6	-0.21341853
26	0xf1	-0.05519445
27	0x16	0.080951855
28	0xd8	-0.14718519
29	0xfd	-0.01103889
30	0xb7	-0.26861298
31	0xa3	-0.34220558
32	0xe1	-0.11406852
33	0x17	0.08463149
34	0xb5	-0.27597225
35	0x27	0.14350556
36	0xf7	-0.03311667
37	0x00	0.0
38	0xd9	-0.14350556
39	0xf8	-0.029437039
40	0x2c	0.16190371
41	0xeb	-0.07727223
42	0x13	0.06991297
43	0xac	-0.30908892
44	0x26	0.13982594
45	0x12	0.06623334
46	0xf4	-0.04415556
47	0xfc	-0.0147185195
48	0xe0	-0.117748156
49	0xff	-0.0036796299
50	0x32	0.1839815
51	0x2f	0.17294261
52	0xea	-0.080951855
53	0x26	0.13982594
54	0xd0	-0.17662224
55	0xf3	-0.04783519
56	0xbd	-0.2465352
57	0x13	0.06991297
58	0xfd	-0.01103889
59	0xf6	-0.036796298
60	0xd5	-0.15822409
61	0x12	0.06623334
62	0x14	0.073592596
63	0xee	-0.06623334
64	0x17	0.08463149
65	0xd4	-0.16190371
66	0xdf	-0.12142779
67	0x07	0.02575741
68	0xef	-0.06255371
69	0xc5	-0.21709816
70	0x09	0.03311667
71	0x1f	0.11406852
72	0xd6	-0.15454446
73	0xed	-0.06991297
74	0x19	0.09199075
75	0xfd	-0.01103889
76	0x2f	0.17294261
77	0x23	0.12878704
78	0x38	0.20605928
79	0x18	0.08831112
80	0x11	0.06255371
81	0xb7	-0.26861298
82	0x1c	0.10302964
83	0x27	0.14350556
84	0x2c	0.16190371
85	0x2f	0.17294261
86	0xbb	-0.25389445
87	0xba	-0.25757408
88	0xcd	-0.18766113
89	0xeb	-0.07727223
90	0xb4	-0.27965188
91	0x10	0.058874078
92	0x1f	0.11406852
93	0xed	-0.06991297
94	0x21	0.12142779
95	0xf5	-0.040475927
96	0xff	-0.0036796299
97	0xf4	-0.04415556
98	0xee	-0.06623334
99	0x1e	0.1103889
100	0x2a	0.15454446
101	0xcd	-0.18766113
102	0x49	0.26861298
103	0x19	0.09199075
104	0xc0	-0.23549631
105	0x2c	0.16190371
106	0xdf	-0.12142779
107	0x1b	0.099350005
108	0x2b	0.15822409
109	0x33	0.18766113
110	0x14	0.073592596
111	0x4d	0.2833315
112	0x21	0.12142779
113	0xfb	-0.018398149
114	0xcd	-0.18766113
115	0xff	-0.0036796299
116	0x07	0.02575741
117	0x18	0.08831112
118	0xfa	-0.02207778
119	0x34	0.19134076
120	0x1c	0.10302964
121	0xef	-0.06255371
122	0xa6	-0.33116668
123	0x20	0.117748156
124	0x19	0.09199075
125	0x15	0.07727223
126	0xdb	-0.1361463
127	0x29	0.15086482
128	0x51	0.29805002
129	0xfc	-0.0147185195
130	0x46	0.25757408
131	0xee	-0.06623334
132	0x25	0.1361463
133	0x02	0.0073592598
134	0x02	0.0073592598
135	0x0c	0.04415556
136	0xff	-0.0036796299
137	0xc9	-0.20237964
138	0x0b	0.040475927
139	0xf4	-0.04415556
140	0x0c	0.04415556
141	0x08	0.029437039
142	0x38	0.20605928
143	0xf6	-0.036796298
144	0x32	0.1839815
145	0xbd	-0.2465352
146	0xdc	-0.13246667
147	0x36	0.19870001
148	0xf5	-0.040475927
149	0xd4	-0.16190371
150	0x03	0.01103889
151	0x0f	0.05519445
152	0x09	0.03311667
153	0x1c	0.10302964
154	0xbf	-0.23917595
155	0xfb	-0.018398149
156	0x14	0.073592596
157	0xf4	-0.04415556
158	0x20	0.117748156
159	0x37	0.20237964
160	0x11	0.06255371
161	0xb2	-0.28701112
162	0x21	0.12142779
163	0xe7	-0.09199075
164	0xbb	-0.25389445
165	0x25	0.1361463
166	0xd3	-0.16558334
167	0xf5	-0.040475927
168	0x19	0.09199075
169	0xf8	-0.029437039
170	0x4a	0.2722926
171	0x21	0.12142779
172	0xf8	-0.029437039
173	0x26	0.13982594
174	0x5a	0.33116668
175	0x11	0.06255371
176	0x23	0.12878704
177	0x02	0.0073592598
178	0xcc	-0.19134076
179	0x42	0.24285558
180	0x1e	0.1103889
181	0x34	0.19134076
182	0xa1	-0.34956485
183	0xe1	-0.11406852
184	0x25	0.1361463
185	0x40	0.23549631
186	0xd9	-0.14350556
187	0xb1	-0.29069075
188	0xd8	-0.14718519
189	0x18	0.08831112
190	0xd8	-0.14718519
191	0x51	0.29805002
192	0x3e	0.22813705
193	0xed	-0.06991297
194	0xe7	-0.09199075
195	0xc3	-0.22445743
196	0x1b	0.099350005
197	0xc8	-0.20605928
198	0x4b	0.27597225
199	0x26	0.13982594
200	0x30	0.17662224
201	0x0d	0.04783519
202	0x2b	0.15822409
203	0x1f	0.11406852
204	0x45	0.25389445
205	0x36	0.19870001
206	0x27	0.14350556
207	0x1e	0.1103889
208	0x36	0.19870001
209	0xee	-0.06623334
210	0x03	0.01103889
211	0xdc	-0.13246667
212	0xb7	-0.26861298
213	0x25	0.1361463
214	0xf7	-0.03311667
215	0xf5	-0.040475927
216	0xdb	-0.1361463
217	0xe4	-0.10302964
218	0xcc	-0.19134076
219	0xe5	-0.099350005
220	0x47	0.2612537
221	0x26	0.13982594
222	0xca	-0.19870001
223	0xcc	-0.19134076
224	0x34	0.19134076
225	0xb8	-0.26493335
226	0x3e	0.22813705
227	0xca	-0.19870001
228	0xfd	-0.01103889
229	0xe0	-0.117748156
230	0x3b	0.21709816
231	0x44	0.25021484
232	0xfb	-0.018398149
233	0x2d	0.16558334
234	0x17	0.08463149
235	0x40	0.23549631
236	0x12	0.06623334
237	0xe5	-0.099350005
238	0xd8	-0.14718519
239	0x45	0.25389445
240	0x14	0.073592596
241	0x3c	0.2207778
242	0x20	0.117748156
243	0xad	-0.30540928
244	0x16	0.080951855
245	0x40	0.23549631
246	0x00	0.0
247	0xea	-0.080951855
248	0x46	0.25757408
249	0x1c	0.10302964
250	0x9e	-0.36060372
251	0xcc	-0.19134076
252	0xe4	-0.10302964
253	0xef	-0.06255371
254	0xf4	-0.04415556
255	0x17	0.08463149

sequential_1/dense_3/MatMul f4 [7, 64]
0	0x3c427636	0.011869004
1	0x3da9a12f	0.082826965
2	0x3da36e0b	0.079799734
3	0x3b18ccc4	0.002331541
4	0x3d95a672	0.073071375
5	0xbe471433	-0.19441299
6	0xbed247e6	-0.4107048
7	0x3db3fb5b	0.087881766
8	0x3e99e832	0.30059963
9	0x3e554fbd	0.20831199
10	0xbee80b20	-0.45320988
11	0xbe584708	-0.21120846
12	0x3ea7dad7	0.3278415
13	0x3e3e14a3	0.1856256
14	0xbb1ac773	-0.0023617416
15	0xbef4c790	-0.47808504
16	0x3e40106a	0.18756261
17	0x3e96b696	0.29436177
18	0xbdbce55a	-0.09223433
19	0xbe8865c8	-0.26640153
20	0xbecc368b	-0.39885363
21	0x3e3d48cc	0.18484801
22	0xbde90b4c	-0.11379108
23	0xbe991780	-0.29900742
24	0xbe56d7cf	-0.20980762
25	0x3e020368	0.12696612
26	0xbe06d7fd	-0.1316833
27	0x3ea5ad66	0.32358855
28	0xbe8fc3a5	-0.28078952
29	0x3a3d34b7	0.0007217633
30	0x3e6e9e4a	0.2330257
31	0x3e55b5ba	0.20870104
32	0x3de619c4	0.11235383
33	0xbe1ef0a3	-0.15521483
34	0x3e573ce5	0.21019323
35	0x3e37fe7b	0.1796817
36	0x3e91ebc9	0.28500202
37	0xbe9c32e5	-0.3050758
38	0x3e031936	0.12802586
39	0xbe015cba	-0.12633029
40	0x3d44f6a7	0.04808679
41	0x3e1c92b7	0.15290342
42	0xbf0b6033	-0.54443663
43	0xbe208388	-0.15675175
44	0x3d47c71c	0.04877387
45	0xbe2a722f	-0.1664512
46	0xbe4e883d	-0.20169158
47	0x3e70a151	0.23499037
48	0xbeb8da5f	-0.36104104
49	0xbe88a6b3	-0.2668968
50	0xbe945666	-0.28972167
51	0x3d6ffec7	0.058592584
52	0x3d995278	0.07486433
53	0xbd3cf224	-0.04612936
54	0xbe410bb9	-0.18852128
55	0xbec58035	-0.38574377
56	0xbf088a9f	-0.5333652
57	0xbe540970	-0.20706725
58	0x3e8225fc	0.25419605
59	0x3ddc65eb	0.10761627
60	0xbdd23a8e	-0.10265075
61	0xbea944c5	-0.3306028
62	0x3d8f7b18	0.070059
63	0xbe35fa19	-0.17771186
64	0xbe6b4ce3	-0.22978549
65	0xbeec17db	-0.4611195
66	0xbe2948a9	-0.16531624
67	0xbe82cfa3	-0.2554904
68	0x3e04b4b4	0.12959558
69	0xbe7973c5	-0.24360569
70	0x3d8def20	0.06930375
71	0x3da0c073	0.07849207
72	0x3e6946bc	0.2278089
73	0xbe2c1111	-0.16803385
74	0x3e997f2b	0.29979834
75	0xbe952f76	-0.29137772
76	0xbe57a374	-0.21058446
77	0xbee9042c	-0.45510995
78	0xbeab17f8	-0.33416724
79	0xbeb457a5	-0.35223117
80	0xbe680766	-0.22659072
81	0xbd8ca425	-0.068672456
82	0xbdf24485	-0.11829475
83	0x3e8f6cd9	0.28012732
84	0x3e0d79b0	0.13815951
85	0xbc3ff7ab	-0.0117167635
86	0xbefaf7f1	-0.4901729
87	0xbcd2d688	-0.025737062
88	0x3e94255d	0.28934756
89	0x3e791a19	0.24326362
90	0x3d8521e0	0.06500602
91	0x3eaf9f4d	0.34301224
92	0xbe3243fc	-0.17408746
93	0x3e1fbb6f	0.15598844
94	0xbe0e4696	-0.13894114
95	0x3e4a5d99	0.19762267
96	0x3e84b201	0.25917056
97	0xbe49c4ef	-0.1970403
98	0x3e4b97f1	0.1988218
99	0xbea6f774	-0.32610667
100	0x3e803d23	0.25046644
101	0x3e3ecc94	0.18632728
102	0xbecaae39	-0.39586046
103	0xbe210165	-0.15723188
104	0x3e12de8a	0.14342704
105	0x3e9b01c1	0.30274776
106	0xbeaf9ace	-0.34297794
107	0xbea1d9a4	-0.3161136
108	0x3e98f685	0.2987558
109	0xbe2d59db	-0.16928808
110	0x3e5c3bcb	0.21507184
111	0x3dcef1b5	0.10104696
112	0x3ddde2da	0.10834284
113	0x3ea1f103	0.3162919
114	0x3e01d72a	0.12679735
115	0xbe983bda	-0.29733163
116	0x3e6be0b5	0.23034938
117	0xbebdcf99	-0.37072447
118	0x3de211a0	0.11038518
119	0xbeb98221	-0.36232093
120	0x3eacf0b9	0.33777407
121	0x3dfdd568	0.1239422
122	0x3e8f2045	0.27954307
123	0xbeed9b0d	-0.46407357
124	0x3de967fa	0.11396785
125	0x3e3adcb8	0.1824826
126	0x3e7951ee	0.2434766
127	0xbe194aed	-0.14969988
128	0xbe947d4c	-0.29001844
129	0xbe716a3d	-0.23575683
130	0xbe25d787	-0.16195498
131	0xbe7d0bba	-0.24711505
132	0xbe907c9e	-0.28220075
133	0x3e53b309	0.20673765
134	0xbdb52d5d	-0.08846543
135	0x3e96ad8e	0.29429287
136	0x3d4dc289	0.05023435
137	0xbe393ff5	-0.18090804
138	0x3e904a83	0.28181848
139	0x3b9307dc	0.004487021
140	0xbec18a82	-0.37800986
141	0x3e213d24	0.1574598
142	0xbd5d84e4	-0.054081813
143	0x3e15bf29	0.14623703
144	0x3cf91483	0.030405289
145	0xbe5ef310	-0.21772408
146	0xbd1185f7	-0.03552815
147	0xbeb38f2f	-0.35070178
148	0xbe76b889	-0.24093832
149	0x3bc4cd51	0.006005921
150	0x3eda35d8	0.42619205
151	0xbf160feb	-0.5861804
152	0xbea93fe8	-0.3305657
153	0x3e7dc47c	0.24781984
154	0xbe7dee69	-0.24797978
155	0xbd65a342	-0.056063898
156	0x3eae07ce	0.3399033
157	0x3eb3a002	0.35083014
158	0xbe3d8f27	-0.1851164
159	0xbde9b272	-0.11410989
160	0xbea4743b	-0.32119927
161	0xbd97052c	-0.07374033
162	0xbe3e9648	-0.18612015
163	0xbdc18933	-0.09449997
164	0xbe8bdd43	-0.27317247
165	0x3ea689fd	0.32527152
166	0xbea680ad	-0.32520047
167	0xbe32278f	-0.17397903
168	0x3e39a86a	0.18130651
169	0xbe4f3d7a	-0.20238295
170	0x3e2404a4	0.16017395
171	0x3e23746a	0.15962377
172	0x3d60c55d	0.05487572
173	0xbe73d9f6	-0.23813614
174	0xbedb799c	-0.42866218
175	0xbe841d54	-0.25803626
176	0xbe22d96d	-0.15903254
177	0x3e533612	0.20626095
178	0x3ead5f2b	0.3386167
179	0x3dbc1da8	0.09185344
180	0xbe50df33	-0.20397644
181	0xbecce146	-0.4001562
182	0x3eb1a132	0.34693295
183	0xbeb01415	-0.3439032
184	0xbe677d9c	-0.2260651
185	0xbd626af6	-0.055277787
186	0xbeaeec5b	-0.341647
187	0x3d94e6bc	0.072705716
188	0xbe3cb257	-0.18427406
189	0xbe9fa5e4	-0.31181252
190	0x3dd47444	0.103737384
191	0xbec63e39	-0.38719347
192	0x3d57d8be	0.052696936
193	0xbdfe5950	-0.12419379
194	0xbe823fcb	-0.25439295
195	0x3e1699aa	0.14707056
196	0x3ec47150	0.383677
197	0xbeaa393c	-0.3324679
198	0xbe7b845a	-0.24562207
199	0xbd94516b	-0.07242092
200	0xbe4dda59	-0.20102824
201	0xbe9d1cf4	-0.30686152
202	0xbe1ebdd8	-0.15502107
203	0xbeb1ecb8	-0.34750915
204	0xbed6e413	-0.41970882
205	0xbebf1fd3	-0.37328967
206	0x3da8b62b	0.08237871
207	0xbeb079b4	-0.34467852
208	0xbd72afed	-0.059249807
209	0x3ebbd8e2	0.36688906
210	0xbee12aa6	-0.4397785
211	0xbe5b7701	-0.21432115
212	0x3e518db5	0.20464213
213	0x3dca8192	0.09887995
214	0xbe8d55b3	-0.27604446
215	0xbe615682	-0.22005656
216	0xbe892222	-0.26783854
217	0xbe0e5ce8	-0.13902628
218	0x3dfba2f7	0.122869425
219	0x3e8830cd	0.26599732
220	0xbe87e0ec	-0.2653879
221	0xbce3a255	-0.027787367
222	0xbe80d729	-0.25164154
223	0x3eb7c128	0.35889554
224	0x3e9b38e8	0.30316854
225	0xbec6aedb	-0.3880528
226	0xbdc546ae	-0.09632622
227	0x3d8df58e	0.069316015
228	0x3e268277	0.16260706
229	0xbbac1a15	-0.0052521327
230	0x3dc873b5	0.09787694
231	0xbd465bc4	-0.04842736
232	0xbd79c486	-0.060978435
233	0x3ea8a29a	0.32936555
234	0x3eb10cbf	0.34580037
235	0xbe4ad83e	-0.19809052
236	0xbe9283a2	-0.28616053
237	0xbdb9caab	-0.09071859
238	0xbe43ff26	-0.191403
239	0xbe8e850c	-0.27835882
240	0xbec34060	-0.38135052
241	0xbdca43de	-0.09876226
242	0x3e89eaa4	0.2693683
243	0xbecc162b	-0.39860663
244	0xbe9a995d	-0.30195132
245	0xbecc3072	-0.3988071
246	0xbe40d844	-0.18832499
247	0x3e895535	0.2682282
248	0xbe44285c	-0.19156021
249	0x3f00a439	0.50250584
250	0x3c1a0b5e	0.009402124
251	0xbe5d446b	-0.2160813
252	0x3e2bf1e0	0.16791487
253	0x3e694cd8	0.2278322
254	0xbebb2180	-0.36548996
255	0xbd521c35	-0.05129643

lstm_3/lstm_cell_6/bias1 f4 [512]
0	0x3ccf9632	0.025340173
1	0x3cf98204	0.030457504
2	0xbcc4efea	-0.024040181
3	0xbd114ed2	-0.03547556
4	0x3c7a5ce5	0.015280937
5	0x3ce53685	0.027980099
6	0x3cdaca2d	0.026707733
7	0x3ca60d20	0.02026993
8	0xbc627994	-0.013822932
9	0x3b612062	0.0034351577
10	0xb6afb3e6	-5.2363494e-06
11	0x3bffe8db	0.007809741
12	0x3d1870fd	0.03721713
13	0x3d909a23	0.07060649
14	0x3d01a3e0	0.031650424
15	0x3b1d5ccf	0.0024011617
16	0xbad7f5c5	-0.0016476443
17	0x3d060a88	0.032724887
18	0x3d285ed3	0.041106056
19	0x3d545415	0.051838
20	0xbd1eca74	-0.038767293
21	0x3c896620	0.01677233
22	0x3cd56ef2	0.02605388
23	0x3d03bbc5	0.032161493
24	0xbcc03deb	-0.023467025
25	0x3a7d4215	0.0009661031
26	0xbb2fc844	-0.0026822248
27	0x3d01b16d	0.031663347
28	0x3cc0af09	0.023520963
29	0x3d58ca2f	0.052927192
30	0x3cb5d1a4	0.022194691
31	0xbd6f019c	-0.058351144
32	0x3d79675f	0.060889598
33	0x3c7e5ab3	0.015524554
34	0x3c60ea02	0.013727667
35	0x3d3df4f1	0.046376172
36	0x3b875fa8	0.004131276
37	0xbcbd2bff	-0.023092268
38	0x3d318c80	0.043346882
39	0x3b67137d	0.0035259419
40	0x3b87ceeb	0.0041445396
41	0x3d3982d2	0.045290776
42	0x3c2fea58	0.010737024
43	0xbc876c30	-0.01653108
44	0x3d10b2bb	0.0353267
45	0x3cb0304b	0.021507403
46	0x3bff6b8a	0.007794802
47	0x3d1f1045	0.038833875
48	0x3c248f7a	0.010043973
49	0x3d720282	0.059084423
50	0x3d1ca594	0.038243845
51	0x3c4b959e	0.012425808
52	0x38eb6dde	0.000112261376
53	0x3d0763fe	0.033054344
54	0xbc0bc1a3	-0.008530053
55	0x3d839400	0.06424713
56	0x3d40b0fa	0.047043778
57	0x3d1eb91c	0.038750753
58	0x3d28574f	0.04109889
59	0x3d01bd08	0.031674415
60	0x3cf0d2d4	0.029397406
61	0xbb256030	-0.0025234334
62	0x3dac6141	0.08416987
63	0x3c8e9bca	0.01740827
64	0x3d259b97	0.040431585
65	0x3c4300df	0.011902063
66	0x3d07a686	0.033117794
67	0x3b8ff455	0.0043931403
68	0x3cb04d27	0.021521164
69	0xbbfe6596	-0.007763575
70	0x3d21d5ba	0.039510466
71	0x3c4ba9b7	0.0124306
72	0x3d2ec784	0.04267074
73	0x3c214cba	0.009844953
74	0x3886d124	6.4285734e-05
75	0x3cffc2b8	0.031220779
76	0x3cda288e	0.026630666
77	0x3ca8b101	0.020592215
78	0xbc83501c	-0.01602941
79	0x3cdd5d23	0.02702195
80	0x3db5d773	0.08878984
81	0x3cb94277	0.0226147
82	0x3c823fa5	0.015899489
83	0x3d6256a9	0.055258427
84	0x3cbbb6d4	0.022914328
85	0x3c51638c	0.0127800815
86	0x3db8e96a	0.09028895
87	0xbcdb78d5	-0.026791016
88	0xbb3f5f6e	-0.0029201168
89	0x3d0f435a	0.03497634
90	0x3dcf1956	0.10112254
91	0x3d50cdf9	0.05097768
92	0x3d14ad6d	0.036298204
93	0xbc6f1db3	-0.014594483
94	0xbbaa1410	-0.00519038
95	0x3ccad361	0.024758996
96	0x3d3c2683	0.045935165
97	0x3cf69b20	0.030103266
98	0xbc2dba1f	-0.010603457
99	0xbd251210	-0.04030043
100	0x3c0fafc9	0.008769938
101	0x3bcfd0b8	0.00634202
102	0x3ce478ea	0.027889688
103	0x3d176d50	0.036969483
104	0x3b4f13c2	0.003159747
105	0xbd728cc6	-0.059216283
106	0xbc873166	-0.016503047
107	0x3c7d7bbd	0.015471396
108	0x3bda6394	0.0066647027
109	0x3c9dc0ce	0.019256976
110	0x3b9f6146	0.004863891
111	0xbcd9b374	-0.026574828
112	0x3d559513	0.05214412
113	0x3cca906e	0.024727073
114	0x3cc7872a	0.024356443
115	0x3d14ae1a	0.03629885
116	0xbc7634cc	-0.015027236
117	0x3c04595d	0.0080779465
118	0xbcaf66b6	-0.021411281
119	0x3cb15e51	0.021651419
120	0x3d650f62	0.055922873
121	0x3d12943a	0.03578589
122	0xbcc9f9fe	-0.024655338
123	0x3ca6df1f	0.020370064
124	0xbbde71bf	-0.006788462
125	0x3d2cbf01	0.042174343
126	0x3cb3df01	0.021956922
127	0x3d87bed2	0.06628193
128	0x3f843f87	1.0331887
129	0x3f856389	1.0421001
130	0x3f7fdb4a	0.99943984
131	0x3f81106e	1.0083139
132	0x3f80290f	1.001253
133	0x3f86c270	1.0528088
134	0x3f7b2da6	0.9811653
135	0x3f852383	1.0401462
136	0x3f797f58	0.97459936
137	0x3f80a065	1.0048949
138	0x3f7c12a6	0.98465955
139	0x3f82bb21	1.0213357
140	0x3f866773	1.050032
141	0x3f892f94	1.0717645
142	0x3f83bcf3	1.0292038
143	0x3f82149b	1.0162538
144	0x3f76c70d	0.9639748
145	0x3f7f3941	0.9969674
146	0x3f86f818	1.0544462
147	0x3f871e97	1.055621
148	0x3f7383a8	0.95122766
149	0x3f80aaf3	1.005217
150	0x3f7053da	0.9387795
151	0x3f7dcdd5	0.991422
152	0x3f81ddbb	1.0145792
153	0x3f8223e1	1.0167199
154	0x3f814c5b	1.0101427
155	0x3f86233d	1.0479504
156	0x3f7ab41e	0.97931087
157	0x3f87deb5	1.061484
158	0x3f80eb44	1.0071797
159	0x3f7a398f	0.9774408
160	0x3f835611	1.026064
161	0x3f859004	1.0434575
162	0x3f77af07	0.96751446
163	0x3f854cb0	1.0414028
164	0x3f7b42b5	0.9814866
165	0x3f795876	0.97400606
166	0x3f85b7f2	1.0446761
167	0x3f8174e4	1.0113797
168	0x3f7d158e	0.98861015
169	0x3f879669	1.0592777
170	0x3f868757	1.0510052
171	0x3f814ad2	1.0100958
172	0x3f80765e	1.0036123
173	0x3f8146ce	1.0099733
174	0x3f82e34a	1.0225613
175	0x3f824e42	1.0180132
176	0x3f839ad2	1.0281622
177	0x3f87c21d	1.0606114
178	0x3f80a244	1.004952
179	0x3f832336	1.024512
180	0x3f868992	1.0510733
181	0x3f87407e	1.0566556
182	0x3f7360a5	0.9506934
183	0x3f8b7937	1.0896367
184	0x3f80f9df	1.0076255
185	0x3f858846	1.0432212
186	0x3f87d5df	1.0612143
187	0x3f834889	1.0256511
188	0x3f85f847	1.0466393
189	0x3f79355f	0.9734706
190	0x3f819b5a	1.0125535
191	0x3f7fde61	0.999487
192	0x3f86abc9	1.0521175
193	0x3f8787c7	1.0588311
194	0x3f7b5b67	0.98186344
195	0x3f7bb71d	0.98326284
196	0x3f849e46	1.0360801
197	0x3f8118df	1.0085715
198	0x3f869032	1.0512755
199	0x3f824a34	1.0178895
200	0x3f856bf2	1.0423567
201	0x3f85678d	1.0422226
202	0x3f840c58	1.0316267
203	0x3f803729	1.0016834
204	0x3f87b279	1.060134
205	0x3f8601ba	1.0469277
206	0x3f7d7ae3	0.99015635
207	0x3f865bc7	1.0496758
208	0x3f87d266	1.0611084
209	0x3f814a02	1.010071
210	0x3f84d65f	1.0377921
211	0x3f870be7	1.0550507
212	0x3f803161	1.0015069
213	0x3f846fa9	1.0346576
214	0x3f81a70c	1.0129104
215	0x3f8705c8	1.0548639
216	0x3f7d9d0a	0.9906775
217	0x3f8500f8	1.0390921
218	0x3f840ab8	1.0315771
219	0x3f84ea90	1.0384083
220	0x3f813651	1.0094701
221	0x3f79258b	0.9732291
222	0x3f7d2400	0.98883057
223	0x3f7ee14d	0.9956253
224	0x3f866166	1.0498474
225	0x3f7a2ce9	0.9772478
226	0x3f7f4260	0.99710655
227	0x3f816264	1.0108151
228	0x3f7964b4	0.97419286
229	0x3f82403e	1.0175855
230	0x3f86d800	1.0534668
231	0x3f8b1b2d	1.0867668
232	0x3f83b868	1.0290651
233	0x3f81e47a	1.014785
234	0x3f804f33	1.002417
235	0x3f841376	1.0318439
236	0x3f824f3d	1.0180432
237	0x3f813965	1.009564
238	0x3f83fdea	1.0311863
239	0x3f799633	0.9749481
240	0x3f889b70	1.0672436
241	0x3f84a2fa	1.0362236
242	0x3f82e6cc	1.0226684
243	0x3f7889c0	0.9708519
244	0x3f7edab3	0.9955246
245	0x3f83aaa2	1.0286448
246	0x3f791d48	0.97310305
247	0x3f82679a	1.0187867
248	0x3f89aade	1.075527
249	0x3f815c4d	1.0106293
250	0x3f7c9a32	0.98672783
251	0x3f8536bc	1.0407329
252	0x3f8598c4	1.0437245
253	0x3f84901e	1.0356481
254	0x3f858a8e	1.0432909
255	0x3f82351c	1.0172458

while/MatMul_1 i1 [512, 128] scale=0.0029631576 zero_point=0
0	0xfd	-0.008889473
1	0x13	0.056299996
2	0xf1	-0.044447362
3	0x04	0.01185263
4	0x1d	0.08593157
5	0xf5	-0.032594733
6	0x09	0.026668418
7	0x00	0.0
8	0x0a	0.029631576
9	0xf5	-0.032594733
10	0x14	0.05926315
11	0x11	0.05037368
12	0x2e	0.13630524
13	0x0b	0.032594733
14	0xf8	-0.02370526
15	0xf6	-0.029631576
16	0xf2	-0.041484207
17	0x0a	0.029631576
18	0x10	0.04741052
19	0xdc	-0.10667367
20	0xf7	-0.026668418
21	0xf8	-0.02370526
22	0xe6	-0.077042095
23	0x07	0.020742103
24	0x08	0.02370526
25	0x17	0.06815262
26	0x08	0.02370526
27	0xf1	-0.044447362
28	0xfa	-0.017778946
29	0xde	-0.10074736
30	0x04	0.01185263
31	0x07	0.020742103
32	0xff	-0.0029631576
33	0x09	0.026668418
34	0x07	0.020742103
35	0x04	0.01185263
36	0x06	0.017778946
37	0xfd	-0.008889473
38	0xf8	-0.02370526
39	0x09	0.026668418
40	0x08	0.02370526
41	0xff	-0.0029631576
42	0xfa	-0.017778946
43	0xed	-0.056299996
44	0xf8	-0.02370526
45	0xfd	-0.008889473
46	0x02	0.005926315
47	0xe1	-0.09185789
48	0x17	0.06815262
49	0x0c	0.035557892
50	0x00	0.0
51	0x24	0.10667367
52	0xe4	-0.082968414
53	0xfe	-0.005926315
54	0x01	0.0029631576
55	0xf0	-0.04741052
56	0xeb	-0.06222631
57	0x0c	0.035557892
58	0x0c	0.035557892
59	0xf5	-0.032594733
60	0x0d	0.038521048
61	0x05	0.014815788
62	0x01	0.0029631576
63	0x1c	0.082968414
64	0x06	0.017778946
65	0x03	0.008889473
66	0xef	-0.05037368
67	0x01	0.0029631576
68	0x14	0.05926315
69	0xfc	-0.01185263
70	0xf3	-0.038521048
71	0x10	0.04741052
72	0x0f	0.044447362
73	0x08	0.02370526
74	0xfd	-0.008889473
75	0x17	0.06815262
76	0x04	0.01185263
77	0x0a	0.029631576
78	0x10	0.04741052
79	0x02	0.005926315
80	0xf9	-0.020742103
81	0x04	0.01185263
82	0xf9	-0.020742103
83	0x17	0.06815262
84	0x09	0.026668418
85	0x1d	0.08593157
86	0x04	0.01185263
87	0xf6	-0.029631576
88	0x19	0.07407894
89	0x05	0.014815788
90	0xfa	-0.017778946
91	0x04	0.01185263
92	0xe2	-0.088894725
93	0xfc	-0.01185263
94	0xdc	-0.10667367
95	0x06	0.017778946
96	0xff	-0.0029631576
97	0xd3	-0.13334209
98	0xfa	-0.017778946
99	0x07	0.020742103
100	0x07	0.020742103
101	0xe7	-0.07407894
102	0x15	0.06222631
103	0xef	-0.05037368
104	0xff	-0.0029631576
105	0x1c	0.082968414
106	0x15	0.06222631
107	0xfe	-0.005926315
108	0x0f	0.044447362
109	0xfc	-0.01185263
110	0xf5	-0.032594733
111	0x1c	0.082968414
112	0x06	0.017778946
113	0x0f	0.044447362
114	0xda	-0.11259999
115	0x00	0.0
116	0x00	0.0
117	0xfc	-0.01185263
118	0xe1	-0.09185789
119	0xf7	-0.026668418
120	0x00	0.0
121	0xef	-0.05037368
122	0x04	0.01185263
123	0xf9	-0.020742103
124	0xfc	-0.01185263
125	0x0a	0.029631576
126	0xf7	-0.026668418
127	0x05	0.014815788
128	0xf3	-0.038521048
129	0xe0	-0.09482104
130	0xf8	-0.02370526
131	0xeb	-0.06222631
132	0xe4	-0.082968414
133	0xfd	-0.008889473
134	0xed	-0.056299996
135	0xf2	-0.041484207
136	0x17	0.06815262
137	0xfb	-0.014815788
138	0x0b	0.032594733
139	0xfc	-0.01185263
140	0x06	0.017778946
141	0xf4	-0.035557892
142	0x18	0.071115784
143	0xe8	-0.071115784
144	0xf4	-0.035557892
145	0x03	0.008889473
146	0x2a	0.12445262
147	0xef	-0.05037368
148	0x19	0.07407894
149	0x0a	0.029631576
150	0xfc	-0.01185263
151	0xe9	-0.06815262
152	0xe0	-0.09482104
153	0x10	0.04741052
154	0x02	0.005926315
155	0x01	0.0029631576
156	0x04	0.01185263
157	0xeb	-0.06222631
158	0x04	0.01185263
159	0x06	0.017778946
160	0xfb	-0.014815788
161	0x10	0.04741052
162	0xec	-0.05926315
163	0x21	0.0977842
164	0xfd	-0.008889473
165	0xe3	-0.08593157
166	0xf1	-0.044447362
167	0xfe	-0.005926315
168	0x04	0.01185263
169	0xe1	-0.09185789
170	0x14	0.05926315
171	0xf5	-0.032594733
172	0xf6	-0.029631576
173	0x08	0.02370526
174	0xee	-0.053336836
175	0xf6	-0.029631576
176	0x05	0.014815788
177	0xfa	-0.017778946
178	0xf7	-0.026668418
179	0xe9	-0.06815262
180	0xe7	-0.07407894
181	0xec	-0.05926315
182	0xed	-0.056299996
183	0x0b	0.032594733
184	0x0c	0.035557892
185	0x15	0.06222631
186	0x05	0.014815788
187	0xfc	-0.01185263
188	0x12	0.053336836
189	0x18	0.071115784
190	0xef	-0.05037368
191	0xe8	-0.071115784
192	0x08	0.02370526
193	0xfa	-0.017778946
194	0x17	0.06815262
195	0xfd	-0.008889473
196	0x09	0.026668418
197	0xea	-0.065189466
198	0xfd	-0.008889473
199	0xf7	-0.026668418
200	0xdf	-0.0977842
201	0x09	0.026668418
202	0xf6	-0.029631576
203	0x0e	0.041484207
204	0x09	0.026668418
205	0x03	0.008889473
206	0x03	0.008889473
207	0x05	0.014815788
208	0x03	0.008889473
209	0x02	0.005926315
210	0xff	-0.0029631576
211	0xd9	-0.11556315
212	0xf2	-0.041484207
213	0x12	0.053336836
214	0xe3	-0.08593157
215	0x0b	0.032594733
216	0x17	0.06815262
217	0xfd	-0.008889473
218	0x11	0.05037368
219	0x23	0.10371052
220	0xf3	-0.038521048
221	0x05	0.014815788
222	0xe7	-0.07407894
223	0xee	-0.053336836
224	0xfd	-0.008889473
225	0xfa	-0.017778946
226	0xff	-0.0029631576
227	0xf2	-0.041484207
228	0x06	0.017778946
229	0xfc	-0.01185263
230	0xfe	-0.005926315
231	0x0d	0.038521048
232	0xe5	-0.08000526
233	0xfd	-0.008889473
234	0x05	0.014815788
235	0x10	0.04741052
236	0x00	0.0
237	0xf7	-0.026668418
238	0xee	-0.053336836
239	0x14	0.05926315
240	0xff	-0.0029631576
241	0xe0	-0.09482104
242	0xfb	-0.014815788
243	0x02	0.005926315
244	0x20	0.09482104
245	0x0b	0.032594733
246	0xf3	-0.038521048
247	0xe5	-0.08000526
248	0x01	0.0029631576
249	0x17	0.06815262
250	0xfa	-0.017778946
251	0x0a	0.029631576
252	0x04	0.01185263
253	0x01	0.0029631576
254	0xfa	-0.017778946
255	0x0a	0.029631576

while/MatMul i1 [512, 13] scale=0.0026499762 zero_point=0
0	0xd3	-0.11924893
1	0x16	0.058299474
2	0x1e	0.07949928
3	0xe8	-0.06359943
4	0xe8	-0.06359943
5	0x12	0.04769957
6	0xdf	-0.087449215
7	0xed	-0.05034955
8	0x20	0.08479924
9	0x0d	0.03444969
10	0xe4	-0.074199334
11	0xe1	-0.08214926
12	0x19	0.06624941
13	0x0d	0.03444969
14	0x22	0.09009919
15	0xdb	-0.09804912
16	0xd7	-0.10864902
17	0xe5	-0.071549356
18	0xdd	-0.09274916
19	0xda	-0.1006991
20	0x10	0.04239962
21	0xd8	-0.105999045
22	0x0f	0.03974964
23	0xf0	-0.04239962
24	0xde	-0.09009919
25	0x04	0.010599905
26	0xf5	-0.029149737
27	0xd0	-0.12719886
28	0xcb	-0.14044873
29	0xdd	-0.09274916
30	0x1e	0.07949928
31	0x41	0.17224845
32	0xd5	-0.11394898
33	0x0a	0.026499761
34	0xf0	-0.04239962
35	0xfe	-0.0052999523
36	0x38	0.14839867
37	0x0f	0.03974964
38	0x23	0.09274916
39	0x08	0.02119981
40	0x1a	0.06889938
41	0x2c	0.11659895
42	0x2d	0.11924893
43	0x0c	0.031799715
44	0xdd	-0.09274916
45	0x1d	0.07684931
46	0xca	-0.14309871
47	0xc5	-0.1563486
48	0xe7	-0.06624941
49	0x06	0.015899858
50	0x1a	0.06889938
51	0xee	-0.04769957
52	0x17	0.060949452
53	0x0d	0.03444969
54	0xe8	-0.06359943
55	0x21	0.087449215
56	0x2d	0.11924893
57	0xd3	-0.11924893
58	0xde	-0.09009919
59	0xf5	-0.029149737
60	0xc3	-0.16164854
61	0xce	-0.13249882
62	0x52	0.21729805
63	0x0b	0.029149737
64	0x06	0.015899858
65	0xdc	-0.09539914
66	0x0a	0.026499761
67	0xf5	-0.029149737
68	0xeb	-0.0556495
69	0xe1	-0.08214926
70	0xff	-0.0026499762
71	0x05	0.013249881
72	0x15	0.0556495
73	0xf8	-0.02119981
74	0xf0	-0.04239962
75	0x2a	0.111299
76	0xff	-0.0026499762
77	0x33	0.13514878
78	0xe3	-0.07684931
79	0x22	0.09009919
80	0x12	0.04769957
81	0x17	0.060949452
82	0x01	0.0026499762
83	0xff	-0.0026499762
84	0x28	0.105999045
85	0x1b	0.071549356
86	0x02	0.0052999523
87	0x01	0.0026499762
88	0x25	0.09804912
89	0xfd	-0.007949929
90	0x15	0.0556495
91	0xf9	-0.018549833
92	0xce	-0.13249882
93	0xfb	-0.013249881
94	0x23	0.09274916
95	0xdf	-0.087449215
96	0x16	0.058299474
97	0x1f	0.08214926
98	0x1d	0.07684931
99	0xf9	-0.018549833
100	0x05	0.013249881
101	0x22	0.09009919
102	0x02	0.0052999523
103	0xf6	-0.026499761
104	0xfd	-0.007949929
105	0xd8	-0.105999045
106	0xce	-0.13249882
107	0x0e	0.037099667
108	0xb1	-0.20934811
109	0x23	0.09274916
110	0xfd	-0.007949929
111	0xf8	-0.02119981
112	0xd9	-0.10334907
113	0xe9	-0.060949452
114	0xe1	-0.08214926
115	0xdf	-0.087449215
116	0xc4	-0.15899856
117	0xd9	-0.10334907
118	0x01	0.0026499762
119	0x0a	0.026499761
120	0x23	0.09274916
121	0xe4	-0.074199334
122	0xf3	-0.03444969
123	0xfa	-0.015899858
124	0x1f	0.08214926
125	0xdd	-0.09274916
126	0xe3	-0.07684931
127	0x28	0.105999045
128	0xf8	-0.02119981
129	0x0a	0.026499761
130	0x01	0.0026499762
131	0x21	0.087449215
132	0x07	0.018549833
133	0xfe	-0.0052999523
134	0xbc	-0.18019839
135	0xf6	-0.026499761
136	0xde	-0.09009919
137	0x1a	0.06889938
138	0x0d	0.03444969
139	0xd6	-0.111299
140	0x0f	0.03974964
141	0xdf	-0.087449215
142	0xc3	-0.16164854
143	0x28	0.105999045
144	0x1f	0.08214926
145	0xf1	-0.03974964
146	0x0c	0.031799715
147	0xe0	-0.08479924
148	0x0b	0.029149737
149	0xec	-0.052999523
150	0xed	-0.05034955
151	0x11	0.045049597
152	0xfb	-0.013249881
153	0x20	0.08479924
154	0xf5	-0.029149737
155	0x15	0.0556495
156	0x10	0.04239962
157	0xe9	-0.060949452
158	0x2e	0.121898904
159	0x27	0.10334907
160	0xfd	-0.007949929
161	0x12	0.04769957
162	0xd9	-0.10334907
163	0x19	0.06624941
164	0x06	0.015899858
165	0xde	-0.09009919
166	0x05	0.013249881
167	0x07	0.018549833
168	0x1a	0.06889938
169	0x00	0.0
170	0x18	0.06359943
171	0xd2	-0.121898904
172	0xf8	-0.02119981
173	0x10	0.04239962
174	0x1f	0.08214926
175	0x4d	0.20404817
176	0x40	0.16959848
177	0xee	-0.04769957
178	0x06	0.015899858
179	0xda	-0.1006991
180	0xf3	-0.03444969
181	0xfd	-0.007949929
182	0xf8	-0.02119981
183	0xfd	-0.007949929
184	0x02	0.0052999523
185	0x2a	0.111299
186	0x2e	0.121898904
187	0xfa	-0.015899858
188	0x04	0.010599905
189	0x2e	0.121898904
190	0x27	0.10334907
191	0xec	-0.052999523
192	0xf7	-0.023849785
193	0xf4	-0.031799715
194	0xe7	-0.06624941
195	0xf1	-0.03974964
196	0xe4	-0.074199334
197	0xf8	-0.02119981
198	0xf1	-0.03974964
199	0x2c	0.11659895
200	0xf6	-0.026499761
201	0xc9	-0.14574869
202	0x1e	0.07949928
203	0xc1	-0.1669485
204	0x13	0.05034955
205	0x01	0.0026499762
206	0xfa	-0.015899858
207	0x1a	0.06889938
208	0xec	-0.052999523
209	0xfc	-0.010599905
210	0x02	0.0052999523
211	0x33	0.13514878
212	0x01	0.0026499762
213	0x44	0.18019839
214	0xe1	-0.08214926
215	0xeb	-0.0556495
216	0xea	-0.058299474
217	0x11	0.045049597
218	0xf9	-0.018549833
219	0xf0	-0.04239962
220	0x30	0.12719886
221	0x1c	0.074199334
222	0x0f	0.03974964
223	0x18	0.06359943
224	0x34	0.13779876
225	0x16	0.058299474
226	0xeb	-0.0556495
227	0xc2	-0.16429852
228	0xf2	-0.037099667
229	0xee	-0.04769957
230	0x1a	0.06889938
231	0x0d	0.03444969
232	0xe2	-0.07949928
233	0xf9	-0.018549833
234	0x11	0.045049597
235	0xe3	-0.07684931
236	0xf6	-0.026499761
237	0xf6	-0.026499761
238	0x00	0.0
239	0xf4	-0.031799715
240	0x19	0.06624941
241	0x04	0.010599905
242	0xe9	-0.060949452
243	0x26	0.1006991
244	0xc1	-0.1669485
245	0x14	0.052999523
246	0xd3	-0.11924893
247	0xdb	-0.09804912
248	0xf6	-0.026499761
249	0xfe	-0.0052999523
250	0x0b	0.029149737
251	0xe3	-0.07684931
252	0x01	0.0026499762
253	0x1c	0.074199334
254	0xe2	-0.07949928
255	0xc3	-0.16164854
