trained_generator/tflite_model.tflite (tflite, 526344 bytes, 12 tensors)

lstm_4/lstm_cell_7/bias f4 [256]
0	0xbc368896	-0.011140963
1	0x3b58809d	0.0033035644
2	0x3ce9baac	0.028531395
3	0x3c20f963	0.009825083
4	0xbc997dfd	-0.018736834
5	0xbcb3738f	-0.021905689
6	0xbbc5a74d	-0.0060319067
7	0xbc1fe308	-0.009758718
8	0xbbce9376	-0.0063042
9	0xbc60a819	-0.013711953
10	0xbd037f75	-0.032103974
11	0xbcc6c4fc	-0.024263851
12	0x3bbdfe92	0.0057981694
13	0xbd4ac7ea	-0.04950706
14	0xbc880f22	-0.016608778
15	0xbcdcb6fc	-0.026942722
16	0xbcd6a84d	-0.026203299
17	0xbd1a10ea	-0.037613787
18	0xbbc000e7	-0.0058594826
19	0x3d165b16	0.03670796
20	0xbd41bee1	-0.047301177
21	0xbd3e8931	-0.046517555
22	0xbc914dab	-0.01773723
23	0xbce4bc37	-0.02792178
24	0xbcdc7da0	-0.026915371
25	0x3d4722e6	0.048617266
26	0xbc4a1055	-0.012332995
27	0xb9bab34a	-0.00035610265
28	0xbd174316	-0.036929213
29	0xbd03d941	-0.03218961
30	0xbd111e10	-0.03542906
31	0xbc9de315	-0.01927332
32	0xbbb51ef9	-0.005527374
33	0xbc0d5d9a	-0.008628273
34	0xbc70b877	-0.014692417
35	0xbbe36a76	-0.0069401814
36	0x3cd388b5	0.025822023
37	0x3cb76c45	0.022390494
38	0xbcd31dbd	-0.025771016
39	0x3d103866	0.035210036
40	0x3d2bb638	0.041921824
41	0xbcbe5442	-0.023233537
42	0xbd25864c	-0.04041128
43	0x3ae32c8f	0.0017332005
44	0xbccb78fb	-0.024837961
45	0xbca345dc	-0.019930772
46	0x3c844089	0.016144054
47	0xbcce36b9	-0.025172578
48	0x3c6aa6e4	0.014322016
49	0xbc4b9a43	-0.012426916
50	0x3c2d1a77	0.010565392
51	0x3c93078f	0.01794794
52	0xbc19b6da	-0.009381974
53	0xbc1496f3	-0.009069192
54	0x3c9bdbe3	0.019025749
55	0xbc52a46d	-0.012856585
56	0x3c936dcb	0.01799669
57	0xbb2c9bee	-0.0026338059
58	0xbcbed7f4	-0.023296334
59	0xbce5097d	-0.027958626
60	0xbc1b68d7	-0.009485445
61	0xbc2049a1	-0.0097831795
62	0xbc013971	-0.00788723
63	0xbc732b2f	-0.014841839
64	0x3f825545	1.0182272
65	0x3f818e23	1.0121502
66	0x3f82e886	1.022721
67	0x3f831013	1.023928
68	0x3f81ace9	1.0130893
69	0x3f869c36	1.0516422
70	0x3f840ae9	1.031583
71	0x3f888e55	1.0668436
72	0x3f81c2dd	1.0137593
73	0x3f848d4c	1.035562
74	0x3f8841db	1.0645097
75	0x3f81981b	1.0124544
76	0x3f838305	1.0274359
77	0x3f857678	1.0426779
78	0x3f827e61	1.0194818
79	0x3f7bdf3d	0.9838751
80	0x3f7fb095	0.9987882
81	0x3f882edb	1.0639299
82	0x3f8859f8	1.0652456
83	0x3f7fc68c	0.99912333
84	0x3f8810f0	1.0630169
85	0x3f84975a	1.0358689
86	0x3f814833	1.0100158
87	0x3f8ae25d	1.085033
88	0x3f83cf20	1.0297585
89	0x3f863a5c	1.048656
90	0x3f845854	1.0339456
91	0x3f82c44e	1.0216157
92	0x3f7de9db	0.9918496
93	0x3f868e7c	1.0512233
94	0x3f85818d	1.0430161
95	0x3f86f937	1.0544804
96	0x3f822726	1.0168197
97	0x3f8428c0	1.0324936
98	0x3f82e046	1.0224693
99	0x3f844974	1.0334916
100	0x3f830070	1.0234509
101	0x3f801f3b	1.0009531
102	0x3f874538	1.0567999
103	0x3f8521f2	1.0400984
104	0x3f820308	1.0157175
105	0x3f7f2d3e	0.9967841
106	0x3f86547a	1.049453
107	0x3f81159e	1.0084722
108	0x3f8a9a98	1.0828428
109	0x3f843664	1.0329099
110	0x3f7d5aa8	0.98966455
111	0x3f87f3b1	1.0621244
112	0x3f83893e	1.0276258
113	0x3f88d9d7	1.069148
114	0x3f839f81	1.0283052
115	0x3f873f91	1.0566274
116	0x3f849f0c	1.0361037
117	0x3f82c650	1.021677
118	0x3f83da22	1.0300944
119	0x3f828a20	1.0198402
120	0x3f7f9397	0.9983458
121	0x3f8232fb	1.0171808
122	0x3f8c3a27	1.0955247
123	0x3f7e0794	0.99230313
124	0x3f82232c	1.0166984
125	0x3f81b3b7	1.013297
126	0x3f7f81c3	0.99807376
127	0x3f7f2860	0.9967098
128	0xbb8a47a3	-0.0042199655
129	0xb9f7d014	-0.00047266542
130	0x3ad63cfb	0.0016345078
131	0xbbdb1944	-0.0066863615
132	0xbb0b46b5	-0.0021251861
133	0xb9d09fd5	-0.00039791936
134	0xbbfc9d20	-0.0077091604
135	0xbbe1bfec	-0.006889334
136	0x3badbd25	0.005302089
137	0xbc0ee1f1	-0.008720861
138	0x3c236d9c	0.009974863
139	0xbb8629f3	-0.004094356
140	0x3c186a96	0.009302756
141	0xba1a71a4	-0.00058915676
142	0x3b4b7dfc	0.0031050434
143	0xbc0616d7	-0.008184156
144	0xbb613811	-0.0034365694
145	0x3a129fff	0.0005593299
146	0x3be581f8	0.007004019
147	0xbbcdb5ad	-0.006277761
148	0xbb3f343c	-0.0029175421
149	0x3c16f8f5	0.009214629
150	0x3c3fdb3c	0.011709984
151	0xbc353c9d	-0.011061815
152	0xbbd135d1	-0.0063845892
153	0xbae96789	-0.0017807345
154	0xbbe7ecd6	-0.0070777936
155	0xbc2aca64	-0.01042423
156	0xbbd550e8	-0.006509889
157	0xbb31c3ea	-0.002712483
158	0xbc07d85e	-0.008291332
159	0xba6e0298	-0.0009079366
160	0x3ca4d64a	0.020121712
161	0xbbe986b9	-0.007126656
162	0xbbeccdfa	-0.0072267028
163	0x3b400dc8	0.002930509
164	0xba0816f9	-0.00051914115
165	0x3af0b930	0.0018365737
166	0x3b21e489	0.0024702868
167	0xbc016ec0	-0.00789994
168	0xbc1600b7	-0.009155444
169	0x3b501115	0.0031748463
170	0x3b091165	0.002091491
171	0xba5ad782	-0.0008348153
172	0xb9ffecff	-0.00048813966
173	0xbc414569	-0.011796334
174	0x3b836850	0.0040102378
175	0x3a393c56	0.00070661807
176	0x3b0016e0	0.0019544885
177	0xbc6a9b9c	-0.014319327
178	0xbb8b2f91	-0.0042476137
179	0x3aee30c7	0.0018172496
180	0xbbd9e127	-0.0066491547
181	0xbc35ee9f	-0.011104255
182	0x3b52f792	0.003219102
183	0x3ad8e237	0.001654691
184	0xbba34656	-0.00498275
185	0xbb050429	-0.002029667
186	0xbb8496b9	-0.004046288
187	0x3c16f2b2	0.0092131365
188	0xbc4b4668	-0.012406923
189	0xbc22723a	-0.009914929
190	0x3a871e55	0.0010308722
191	0x3b97e8b5	0.004635895
192	0x3c5100c8	0.012756534
193	0x3ce086cc	0.027408026
194	0x3c7c8bd7	0.0154142
195	0x3d0fc229	0.035097275
196	0x3ca3b06e	0.01998159
197	0x3d8fc17f	0.07019328
198	0x3d233f73	0.03985543
199	0x3d423559	0.047414158
200	0xbc23cd6c	-0.009997707
201	0x3d268f81	0.0406642
202	0x3d0f5551	0.034993473
203	0xbcce79cd	-0.025204564
204	0x3cd599d4	0.026074328
205	0x3d0001d7	0.031251755
206	0xbc2bff70	-0.010497913
207	0x3b850195	0.0040590265
208	0xbce96d85	-0.028494606
209	0x3bf89783	0.007586421
210	0x3d703cc9	0.05865172
211	0x3d2000a8	0.039063126
212	0x3d50a882	0.05094195
213	0x3d1c24d4	0.03812106
214	0xbc704967	-0.014665938
215	0x3d68391e	0.056695096
216	0x3c8eed30	0.017447084
217	0x3d2cfa2c	0.04223077
218	0x3d08b07c	0.033371434
219	0xbbbfc768	-0.0058526285
220	0xbc2c13ff	-0.010502814
221	0x3d06fac4	0.032953992
222	0x3de57d83	0.1120558
223	0x3d77a797	0.06046256
224	0xbb5cd9e9	-0.003369922
225	0xbc393476	-0.011304012
226	0x3d2e395b	0.042535167
227	0x3be05db0	0.006847106
228	0xbcec9941	-0.02888167
229	0x3c733f9b	0.014846708
230	0x3d3190c3	0.043350946
231	0x3d84dd94	0.06487575
232	0x3d93cdd6	0.072169945
233	0xbc6b70ce	-0.014370156
234	0x3cd649e4	0.02615828
235	0x3d868d55	0.06569926
236	0x3b01a403	0.0019781596
237	0x3d0d4138	0.034486026
238	0x3ca13b82	0.019681696
239	0x3d64907d	0.055801857
240	0xbbbc7e32	-0.0057523483
241	0x3cd3f8d5	0.025875488
242	0x3d68ef49	0.056868825
243	0x3d6d04a8	0.05786577
244	0xbc7a0ff3	-0.015262592
245	0x3c3a0eb4	0.011356045
246	0x3d3d083d	0.046150435
247	0x3c3bd84b	0.0114651425
248	0x3cb1c43b	0.021700015
249	0xbbd1bcf7	-0.0064007
250	0x3da8c529	0.0824073
251	0x3cdde267	0.027085496
252	0x3cb17db4	0.021666385
253	0x3cab2aa9	0.020894365
254	0xbc5fc97b	-0.0136588765
255	0x3cad693e	0.021168347

lstm_3/lstm_cell_6/bias f4 [512]
0	0x3ccf9632	0.025340173
1	0x3cf98204	0.030457504
2	0xbcc4efea	-0.024040181
3	0xbd114ed2	-0.03547556
4	0x3c7a5ce5	0.015280937
5	0x3ce53685	0.027980099
6	0x3cdaca2d	0.026707733
7	0x3ca60d20	0.02026993
8	0xbc627994	-0.013822932
9	0x3b612062	0.0034351577
10	0xb6afb3e6	-5.2363494e-06
11	0x3bffe8db	0.007809741
12	0x3d1870fd	0.03721713
13	0x3d909a23	0.07060649
14	0x3d01a3e0	0.031650424
15	0x3b1d5ccf	0.0024011617
16	0xbad7f5c5	-0.0016476443
17	0x3d060a88	0.032724887
18	0x3d285ed3	0.041106056
19	0x3d545415	0.051838
20	0xbd1eca74	-0.038767293
21	0x3c896620	0.01677233
22	0x3cd56ef2	0.02605388
23	0x3d03bbc5	0.032161493
24	0xbcc03deb	-0.023467025
25	0x3a7d4215	0.0009661031
26	0xbb2fc844	-0.0026822248
27	0x3d01b16d	0.031663347
28	0x3cc0af09	0.023520963
29	0x3d58ca2f	0.052927192
30	0x3cb5d1a4	0.022194691
31	0xbd6f019c	-0.058351144
32	0x3d79675f	0.060889598
33	0x3c7e5ab3	0.015524554
34	0x3c60ea02	0.013727667
35	0x3d3df4f1	0.046376172
36	0x3b875fa8	0.004131276
37	0xbcbd2bff	-0.023092268
38	0x3d318c80	0.043346882
39	0x3b67137d	0.0035259419
40	0x3b87ceeb	0.0041445396
41	0x3d3982d2	0.045290776
42	0x3c2fea58	0.010737024
43	0xbc876c30	-0.01653108
44	0x3d10b2bb	0.0353267
45	0x3cb0304b	0.021507403
46	0x3bff6b8a	0.007794802
47	0x3d1f1045	0.038833875
48	0x3c248f7a	0.010043973
49	0x3d720282	0.059084423
50	0x3d1ca594	0.038243845
51	0x3c4b959e	0.012425808
52	0x38eb6dde	0.000112261376
53	0x3d0763fe	0.033054344
54	0xbc0bc1a3	-0.008530053
55	0x3d839400	0.06424713
56	0x3d40b0fa	0.047043778
57	0x3d1eb91c	0.038750753
58	0x3d28574f	0.04109889
59	0x3d01bd08	0.031674415
60	0x3cf0d2d4	0.029397406
61	0xbb256030	-0.0025234334
62	0x3dac6141	0.08416987
63	0x3c8e9bca	0.01740827
64	0x3d259b97	0.040431585
65	0x3c4300df	0.011902063
66	0x3d07a686	0.033117794
67	0x3b8ff455	0.0043931403
68	0x3cb04d27	0.021521164
69	0xbbfe6596	-0.007763575
70	0x3d21d5ba	0.039510466
71	0x3c4ba9b7	0.0124306
72	0x3d2ec784	0.04267074
73	0x3c214cba	0.009844953
74	0x3886d124	6.4285734e-05
75	0x3cffc2b8	0.031220779
76	0x3cda288e	0.026630666
77	0x3ca8b101	0.020592215
78	0xbc83501c	-0.01602941
79	0x3cdd5d23	0.02702195
80	0x3db5d773	0.08878984
81	0x3cb94277	0.0226147
82	0x3c823fa5	0.015899489
83	0x3d6256a9	0.055258427
84	0x3cbbb6d4	0.022914328
85	0x3c51638c	0.0127800815
86	0x3db8e96a	0.09028895
87	0xbcdb78d5	-0.026791016
88	0xbb3f5f6e	-0.0029201168
89	0x3d0f435a	0.03497634
90	0x3dcf1956	0.10112254
91	0x3d50cdf9	0.05097768
92	0x3d14ad6d	0.036298204
93	0xbc6f1db3	-0.014594483
94	0xbbaa1410	-0.00519038
95	0x3ccad361	0.024758996
96	0x3d3c2683	0.045935165
97	0x3cf69b20	0.030103266
98	0xbc2dba1f	-0.010603457
99	0xbd251210	-0.04030043
100	0x3c0fafc9	0.008769938
101	0x3bcfd0b8	0.00634202
102	0x3ce478ea	0.027889688
103	0x3d176d50	0.036969483
104	0x3b4f13c2	0.003159747
105	0xbd728cc6	-0.059216283
106	0xbc873166	-0.016503047
107	0x3c7d7bbd	0.015471396
108	0x3bda6394	0.0066647027
109	0x3c9dc0ce	0.019256976
110	0x3b9f6146	0.004863891
111	0xbcd9b374	-0.026574828
112	0x3d559513	0.05214412
113	0x3cca906e	0.024727073
114	0x3cc7872a	0.024356443
115	0x3d14ae1a	0.03629885
116	0xbc7634cc	-0.015027236
117	0x3c04595d	0.0080779465
118	0xbcaf66b6	-0.021411281
119	0x3cb15e51	0.021651419
120	0x3d650f62	0.055922873
121	0x3d12943a	0.03578589
122	0xbcc9f9fe	-0.024655338
123	0x3ca6df1f	0.020370064
124	0xbbde71bf	-0.006788462
125	0x3d2cbf01	0.042174343
126	0x3cb3df01	0.021956922
127	0x3d87bed2	0.06628193
128	0x3f843f87	1.0331887
129	0x3f856389	1.0421001
130	0x3f7fdb4a	0.99943984
131	0x3f81106e	1.0083139
132	0x3f80290f	1.001253
133	0x3f86c270	1.0528088
134	0x3f7b2da6	0.9811653
135	0x3f852383	1.0401462
136	0x3f797f58	0.97459936
137	0x3f80a065	1.0048949
138	0x3f7c12a6	0.98465955
139	0x3f82bb21	1.0213357
140	0x3f866773	1.050032
141	0x3f892f94	1.0717645
142	0x3f83bcf3	1.0292038
143	0x3f82149b	1.0162538
144	0x3f76c70d	0.9639748
145	0x3f7f3941	0.9969674
146	0x3f86f818	1.0544462
147	0x3f871e97	1.055621
148	0x3f7383a8	0.95122766
149	0x3f80aaf3	1.005217
150	0x3f7053da	0.9387795
151	0x3f7dcdd5	0.991422
152	0x3f81ddbb	1.0145792
153	0x3f8223e1	1.0167199
154	0x3f814c5b	1.0101427
155	0x3f86233d	1.0479504
156	0x3f7ab41e	0.97931087
157	0x3f87deb5	1.061484
158	0x3f80eb44	1.0071797
159	0x3f7a398f	0.9774408
160	0x3f835611	1.026064
161	0x3f859004	1.0434575
162	0x3f77af07	0.96751446
163	0x3f854cb0	1.0414028
164	0x3f7b42b5	0.9814866
165	0x3f795876	0.97400606
166	0x3f85b7f2	1.0446761
167	0x3f8174e4	1.0113797
168	0x3f7d158e	0.98861015
169	0x3f879669	1.0592777
170	0x3f868757	1.0510052
171	0x3f814ad2	1.0100958
172	0x3f80765e	1.0036123
173	0x3f8146ce	1.0099733
174	0x3f82e34a	1.0225613
175	0x3f824e42	1.0180132
176	0x3f839ad2	1.0281622
177	0x3f87c21d	1.0606114
178	0x3f80a244	1.004952
179	0x3f832336	1.024512
180	0x3f868992	1.0510733
181	0x3f87407e	1.0566556
182	0x3f7360a5	0.9506934
183	0x3f8b7937	1.0896367
184	0x3f80f9df	1.0076255
185	0x3f858846	1.0432212
186	0x3f87d5df	1.0612143
187	0x3f834889	1.0256511
188	0x3f85f847	1.0466393
189	0x3f79355f	0.9734706
190	0x3f819b5a	1.0125535
191	0x3f7fde61	0.999487
192	0x3f86abc9	1.0521175
193	0x3f8787c7	1.0588311
194	0x3f7b5b67	0.98186344
195	0x3f7bb71d	0.98326284
196	0x3f849e46	1.0360801
197	0x3f8118df	1.0085715
198	0x3f869032	1.0512755
199	0x3f824a34	1.0178895
200	0x3f856bf2	1.0423567
201	0x3f85678d	1.0422226
202	0x3f840c58	1.0316267
203	0x3f803729	1.0016834
204	0x3f87b279	1.060134
205	0x3f8601ba	1.0469277
206	0x3f7d7ae3	0.99015635
207	0x3f865bc7	1.0496758
208	0x3f87d266	1.0611084
209	0x3f814a02	1.010071
210	0x3f84d65f	1.0377921
211	0x3f870be7	1.0550507
212	0x3f803161	1.0015069
213	0x3f846fa9	1.0346576
214	0x3f81a70c	1.0129104
215	0x3f8705c8	1.0548639
216	0x3f7d9d0a	0.9906775
217	0x3f8500f8	1.0390921
218	0x3f840ab8	1.0315771
219	0x3f84ea90	1.0384083
220	0x3f813651	1.0094701
221	0x3f79258b	0.9732291
222	0x3f7d2400	0.98883057
223	0x3f7ee14d	0.9956253
224	0x3f866166	1.0498474
225	0x3f7a2ce9	0.9772478
226	0x3f7f4260	0.99710655
227	0x3f816264	1.0108151
228	0x3f7964b4	0.97419286
229	0x3f82403e	1.0175855
230	0x3f86d800	1.0534668
231	0x3f8b1b2d	1.0867668
232	0x3f83b868	1.0290651
233	0x3f81e47a	1.014785
234	0x3f804f33	1.002417
235	0x3f841376	1.0318439
236	0x3f824f3d	1.0180432
237	0x3f813965	1.009564
238	0x3f83fdea	1.0311863
239	0x3f799633	0.9749481
240	0x3f889b70	1.0672436
241	0x3f84a2fa	1.0362236
242	0x3f82e6cc	1.0226684
243	0x3f7889c0	0.9708519
244	0x3f7edab3	0.9955246
245	0x3f83aaa2	1.0286448
246	0x3f791d48	0.97310305
247	0x3f82679a	1.0187867
248	0x3f89aade	1.075527
249	0x3f815c4d	1.0106293
250	0x3f7c9a32	0.98672783
251	0x3f8536bc	1.0407329
252	0x3f8598c4	1.0437245
253	0x3f84901e	1.0356481
254	0x3f858a8e	1.0432909
255	0x3f82351c	1.0172458

dense_3/bias f4 [7]
0	0x3bf0f661	0.0073535894
1	0xbd3bd010	-0.04585272
2	0x3d92c80f	0.071670644
3	0xbd4eefee	-0.050521784
4	0xbcdf27d5	-0.027240673
5	0x3a5ae4e5	0.0008350148
6	0x3d0d372b	0.03447644

dense_2/bias f4 [64]
0	0x3b538ce7	0.003228003
1	0x3b646811	0.0034852067
2	0x3d35af15	0.044356424
3	0x3cf17c56	0.029478233
4	0x3d141a27	0.036157753
5	0x3d844482	0.06458379
6	0xbc525774	-0.012838233
7	0x3d84a195	0.06476132
8	0xbcf53f6c	-0.029937468
9	0xbb8eab07	-0.004353884
10	0x3d317884	0.043327823
11	0x3d7ad2d3	0.061236214
12	0xbd3cd59b	-0.046102148
13	0x3dcb6289	0.099309035
14	0xbc95180f	-0.018199949
15	0x3d9812f4	0.0742549
16	0x3d9b7b38	0.075918615
17	0x3d9a1447	0.07523399
18	0x3df55061	0.11978222
19	0x3c711785	0.01471508
20	0x3cc202a2	0.023682896
21	0x3c9c9997	0.019116206
22	0x3cdbd3d8	0.026834413
23	0x3d5ea282	0.0543542
24	0xbc3f6963	-0.011682841
25	0x3d4cc4fe	0.049992554
26	0x3cb0569a	0.02152567
27	0xbcafdcc6	-0.021467578
28	0x3d39245d	0.045200694
29	0xbb547443	-0.003241793
30	0xbd3c0efb	-0.045912724
31	0x3d809248	0.06277901
32	0x3c0d9056	0.008640369
33	0xbb7b3844	-0.0038333097
34	0xbd21829f	-0.03943121
35	0x3dd2380e	0.10264598
36	0xbc250256	-0.010071358
37	0x3d8ea81e	0.069656596
38	0x3d921208	0.071323454
39	0x3c4270db	0.011867727
40	0x3d2f1d56	0.042752586
41	0xbc36bcb8	-0.0111533925
42	0x3d3d5614	0.04622467
43	0x3d887eac	0.06664786
44	0x3cd4ead9	0.02599089
45	0xbd17218d	-0.03689723
46	0x3d14ed83	0.03635932
47	0x3c31479a	0.010820294
48	0x3d4ee15b	0.050507884
49	0x3cd5017e	0.026001688
50	0x3b1e9d3b	0.0024202603
51	0x3db47992	0.0881225
52	0x3d0cfc40	0.03442025
53	0x3a760bca	0.0009385912
54	0x3d758e93	0.059950422
55	0x3ca369c2	0.01994789
56	0xbc8fce0d	-0.017554307
57	0x3ccbbf8d	0.024871612
58	0x3cefd70d	0.029277349
59	0x3da3151e	0.07963012
60	0x3bd562e3	0.0065120324
61	0x3d756aa4	0.059916154
62	0x3d0a7a73	0.033808183
63	0x3c17396f	0.009230002

sequential_1/dense_2/MatMul f4 [64, 64]
0	0xbdf7816b	-0.120852314
1	0xbce21126	-0.027596068
2	0xbe06437a	-0.13111678
3	0xbe41ac5c	-0.18913406
4	0x3dd83057	0.10556095
5	0x3bb070e9	0.0053845537
6	0x3e1fbcce	0.15599367
7	0xbda305c1	-0.07960082
8	0xbcc54476	-0.024080496
9	0x3e475135	0.19464572
10	0xbe6a23ba	-0.22865191
11	0xbd4cfff1	-0.050048772
12	0xbc7cb5bb	-0.015424187
13	0x3e019bf0	0.12657142
14	0x3e279113	0.16363935
15	0x3cf880d6	0.030334871
16	0xbea16e86	-0.31529635
17	0x3d8c4cf0	0.06850612
18	0x3e418794	0.18899375
19	0x3d95a306	0.07306485
20	0x3e19a237	0.15003286
21	0xbd929147	-0.07156616
22	0x3e0fcf3b	0.14043896
23	0xbc86d0c5	-0.016456971
24	0xbcee10e5	-0.02906079
25	0xbe5afad7	-0.2138475
26	0xbd5db51f	-0.05412781
27	0x3da81472	0.08207025
28	0xbe1712fb	-0.14753334
29	0xbc322516	-0.0108731
30	0xbe8a5f71	-0.2702594
31	0xbeae76fc	-0.34075153
32	0xbdead984	-0.11467269
33	0x3dac5050	0.08413756
34	0xbe8db354	-0.2767588
35	0x3e12cbb5	0.1433552
36	0xbd0ae058	-0.033905357
37	0x3ad740cb	0.0016422508
38	0xbe140900	-0.14456558
39	0xbceb68df	-0.02873653
40	0x3e251edd	0.16125055
41	0xbd9d4dd0	-0.07680857
42	0x3d8d4b09	0.068990774
43	0xbe9e803a	-0.30957204
44	0x3e0f8433	0.14015274
45	0x3d89e356	0.06732814
46	0xbd2fb22b	-0.042894524
47	0xbc782d2f	-0.015147491
48	0xbdee84f4	-0.116464525
49	0xbb3e94f1	-0.0029080475
50	0x3e3bf5d2	0.18355492
51	0x3e305ea0	0.17223597
52	0xbda4d533	-0.08048477
53	0x3e0d7920	0.13815737
54	0xbe34bdb9	-0.17650498
55	0xbd4ac94a	-0.04950837
56	0xbe7ccb19	-0.2468685
57	0x3d8f2210	0.06988919
58	0xbc4d7ef6	-0.012542477
59	0xbd104839	-0.035225127
60	0xbe20cc66	-0.15702972
61	0x3d87a0ba	0.06622453
62	0x3d95357e	0.072855935
63	0xbd8804bf	-0.0664153
64	0x3daeccaf	0.08535134
65	0xbe2757dd	-0.16342111
66	0xbdfb80c0	-0.122804165
67	0x3cc4ef28	0.02403982
68	0xbd81986d	-0.06327901
69	0xbe5df5f3	-0.21675853
70	0x3d0972e5	0.033556838
71	0x3de77514	0.11301628
72	0xbe1c90f4	-0.1528967
73	0xbd8cce43	-0.06875279
74	0x3dbca4a2	0.09211089
75	0xbc3ae586	-0.011407262
76	0x3e308001	0.1723633
77	0x3e03b990	0.12863755
78	0x3e52f68b	0.20601861
79	0x3db75a9b	0.089528285
80	0x3d7c7cf6	0.06164261
81	0xbe8a439b	-0.27004704
82	0x3dd17511	0.10227407
83	0x3e14c7d2	0.1452935
84	0x3e24ae05	0.16082008
85	0x3e32d4da	0.17464009
86	0xbe814651	-0.2524896
87	0xbe8334ba	-0.25626165
88	0xbe4142a4	-0.18873078
89	0xbda07bff	-0.078361504
90	0xbe8fd851	-0.28094724
91	0x3d7340c8	0.059387952
92	0x3deb9a73	0.11504068
93	0xbd8fd598	-0.07023162
94	0x3dfc4cbd	0.12319324
95	0xbd25f679	-0.040518258
96	0xbbabf4c3	-0.0052476837
97	0xbd2fed87	-0.042951133
98	0xbd8b5d59	-0.06804914
99	0x3de55298	0.11197394
100	0x3e1f4d18	0.15556753
101	0xbe407bef	-0.18797277
102	0x3e88aa7b	0.26692566
103	0x3dbd20e6	0.092347905
104	0xbe70a41f	-0.23500107
105	0x3e2728bb	0.16324131
106	0xbdfb9146	-0.12283568
107	0x3dcc6a78	0.09981245
108	0x3e204e7a	0.15654936
109	0x3e3e6289	0.18592276
110	0x3d9a5638	0.07535976
111	0x3e907bb1	0.2821937
112	0x3df9f2c5	0.12204508
113	0xbc9b1a55	-0.018933455
114	0xbe3fae56	-0.18718848
115	0xbb5e954c	-0.00339635
116	0x3ce0801f	0.027404843
117	0x3db78f2e	0.08962856
118	0xbcae2d7e	-0.021261927
119	0x3e441444	0.19148356
120	0x3dd1e37d	0.10248468
121	0xbd7c1b50	-0.061549485
122	0xbea8c634	-0.32963717
123	0x3df2a91b	0.118486606
124	0x3dbd23c5	0.09235338
125	0x3d9b07a9	0.075698204
126	0xbe0a03fa	-0.1347808
127	0x3e1b385b	0.15158217
128	0x3e99717e	0.299694
129	0xbc875bde	-0.016523298
130	0x3e84847f	0.25882336
131	0xbd87129a	-0.06595345
132	0x3e0ac8e1	0.13553192
133	0x3bcb900e	0.006212241
134	0x3bce203c	0.0062904637
135	0x3d374e3e	0.044752352
136	0xbb7b31c9	-0.0038329235
137	0xbe4d71ff	-0.20063017
138	0x3d2d18d9	0.042260025
139	0xbd388e37	-0.0450575
140	0x3d384060	0.044983268
141	0x3cefb51c	0.029261164
142	0x3e52d4a5	0.2058893
143	0xbd13cae7	-0.036082175
144	0x3e3b3f4f	0.18285869
145	0xbe7cdcf3	-0.2469366
146	0xbe092363	-0.13392405
147	0x3e4c2cc7	0.19938956
148	0xbd220278	-0.039553136
149	0xbe265e0d	-0.16246815
150	0x3c1c16f3	0.009526956
151	0x3d67ba34	0.05657406
152	0x3d041a24	0.032251492
153	0x3dd2b3de	0.10288213
154	0xbe74c6aa	-0.2390391
155	0xbca299c6	-0.019848716
156	0x3d93df30	0.07220304
157	0xbd3a17a0	-0.045432687
158	0x3df1e07c	0.11810395
159	0x3e4de6a3	0.20107512
160	0x3d79b574	0.060964063
161	0xbe92cf2b	-0.28673682
162	0x3df712c2	0.12064125
163	0xbdbc9c3b	-0.09209486
164	0xbe8250fe	-0.25452417
165	0x3e0bbe40	0.13646793
166	0xbe2870c2	-0.16449264
167	0xbd273ccf	-0.040829476
168	0x3dbe6961	0.09297443
169	0xbcf171a6	-0.029473137
170	0x3e8c4ec0	0.2740383
171	0x3df56b49	0.11983354
172	0xbcfd10c1	-0.030891778
173	0x3e0d8cf8	0.13823307
174	0x3ea99fc9	0.3312972
175	0x3d801e87	0.06255823
176	0x3e037df6	0.12841019
177	0x3bb95bbd	0.005656688
178	0xbe429442	-0.19001868
179	0x3e77b4dc	0.24190086
180	0x3de0e79b	0.10981675
181	0x3e45b5fd	0.19307704
182	0xbeb3a7dd	-0.35089007
183	0xbde63241	-0.11240054
184	0x3e09c4fc	0.1345405
185	0x3e706971	0.23477723
186	0xbe14b6fb	-0.14522927
187	0xbe9551a3	-0.29163846
188	0xbe1619fa	-0.14658347
189	0x3db1d631	0.08683432
190	0xbe17291e	-0.14761779
191	0x3e97d62e	0.29655594
192	0x3e6b74cf	0.22993778
193	0xbd91449a	-0.07093163
194	0xbdbe4e3a	-0.09292264
195	0xbe6630e4	-0.22479588
196	0x3dc868bc	0.097856015
197	0xbe51565b	-0.20443098
198	0x3e8c8906	0.2744829
199	0x3e0e2099	0.13879623
200	0x3e35fa7c	0.17771333
201	0x3d3c91d1	0.0460375
202	0x3e239421	0.15974475
203	0x3de66d31	0.11251295
204	0x3e818935	0.25299993
205	0x3e4a3950	0.19748425
206	0x3e130ea4	0.14361054
207	0x3ddee924	0.10884312
208	0x3e4ac168	0.19800341
209	0xbd841fd8	-0.06451386
210	0x3c4b167e	0.012395499
211	0xbe072c7e	-0.13200566
212	0xbe8a6779	-0.27032068
213	0x3e0c28cd	0.1368744
214	0xbd08cb28	-0.03339687
215	0xbd2b9abe	-0.04189562
216	0xbe0cbfe9	-0.13745083
217	0xbdd57aeb	-0.10423835
218	0xbe4223af	-0.18958925
219	0xbdc95a16	-0.09831636
220	0x3e869628	0.26286435
221	0x3e10716e	0.1410577
222	0xbe49f421	-0.19722034
223	0xbe43136b	-0.19050376
224	0x3e423964	0.18967205
225	0xbe875444	-0.26431477
226	0x3e694900	0.22781754
227	0xbe4cc11c	-0.1999554
228	0xbc212914	-0.009836454
229	0xbdf3b1cc	-0.118991464
230	0x3e5f49dd	0.2180552
231	0x3e7e7c70	0.24852157
232	0xbca330b3	-0.019920683
233	0x3e2aa26d	0.16663523
234	0x3dab140e	0.083534345
235	0x3e726342	0.23670676
236	0x3d86b61f	0.065777056
237	0xbdc7b85e	-0.09751962
238	0xbe16d915	-0.14731248
239	0x3e825861	0.25458053
240	0x3d944fa5	0.072417535
241	0x3e627445	0.22114666
242	0x3df07141	0.117403515
243	0xbe9c5db5	-0.30540243
244	0x3da319e2	0.07963921
245	0x3e6fb3ab	0.23408382
246	0x3a6ffc07	0.00091546815
247	0xbda811e8	-0.0820654
248	0x3e842c10	0.25814867
249	0x3dd1fcef	0.102533214
250	0xbeb90a8b	-0.36140856
251	0xbe44961f	-0.19197892
252	0xbdd35831	-0.103195556
253	0xbd7baf4c	-0.061446473
254	0xbd3c2048	-0.045929223
255	0x3dad64b8	0.08466476

sequential_1/dense_3/MatMul f4 [7, 64]
0	0x3c427636	0.011869004
1	0x3da9a12f	0.082826965
2	0x3da36e0b	0.079799734
3	0x3b18ccc4	0.002331541
4	0x3d95a672	0.073071375
5	0xbe471433	-0.19441299
6	0xbed247e6	-0.4107048
7	0x3db3fb5b	0.087881766
8	0x3e99e832	0.30059963
9	0x3e554fbd	0.20831199
10	0xbee80b20	-0.45320988
11	0xbe584708	-0.21120846
12	0x3ea7dad7	0.3278415
13	0x3e3e14a3	0.1856256
14	0xbb1ac773	-0.0023617416
15	0xbef4c790	-0.47808504
16	0x3e40106a	0.18756261
17	0x3e96b696	0.29436177
18	0xbdbce55a	-0.09223433
19	0xbe8865c8	-0.26640153
20	0xbecc368b	-0.39885363
21	0x3e3d48cc	0.18484801
22	0xbde90b4c	-0.11379108
23	0xbe991780	-0.29900742
24	0xbe56d7cf	-0.20980762
25	0x3e020368	0.12696612
26	0xbe06d7fd	-0.1316833
27	0x3ea5ad66	0.32358855
28	0xbe8fc3a5	-0.28078952
29	0x3a3d34b7	0.0007217633
30	0x3e6e9e4a	0.2330257
31	0x3e55b5ba	0.20870104
32	0x3de619c4	0.11235383
33	0xbe1ef0a3	-0.15521483
34	0x3e573ce5	0.21019323
35	0x3e37fe7b	0.1796817
36	0x3e91ebc9	0.28500202
37	0xbe9c32e5	-0.3050758
38	0x3e031936	0.12802586
39	0xbe015cba	-0.12633029
40	0x3d44f6a7	0.04808679
41	0x3e1c92b7	0.15290342
42	0xbf0b6033	-0.54443663
43	0xbe208388	-0.15675175
44	0x3d47c71c	0.04877387
45	0xbe2a722f	-0.1664512
46	0xbe4e883d	-0.20169158
47	0x3e70a151	0.23499037
48	0xbeb8da5f	-0.36104104
49	0xbe88a6b3	-0.2668968
50	0xbe945666	-0.28972167
51	0x3d6ffec7	0.058592584
52	0x3d995278	0.07486433
53	0xbd3cf224	-0.04612936
54	0xbe410bb9	-0.18852128
55	0xbec58035	-0.38574377
56	0xbf088a9f	-0.5333652
57	0xbe540970	-0.20706725
58	0x3e8225fc	0.25419605
59	0x3ddc65eb	0.10761627
60	0xbdd23a8e	-0.10265075
61	0xbea944c5	-0.3306028
62	0x3d8f7b18	0.070059
63	0xbe35fa19	-0.17771186
64	0xbe6b4ce3	-0.22978549
65	0xbeec17db	-0.4611195
66	0xbe2948a9	-0.16531624
67	0xbe82cfa3	-0.2554904
68	0x3e04b4b4	0.12959558
69	0xbe7973c5	-0.24360569
70	0x3d8def20	0.06930375
71	0x3da0c073	0.07849207
72	0x3e6946bc	0.2278089
73	0xbe2c1111	-0.16803385
74	0x3e997f2b	0.29979834
75	0xbe952f76	-0.29137772
76	0xbe57a374	-0.21058446
77	0xbee9042c	-0.45510995
78	0xbeab17f8	-0.33416724
79	0xbeb457a5	-0.35223117
80	0xbe680766	-0.22659072
81	0xbd8ca425	-0.068672456
82	0xbdf24485	-0.11829475
83	0x3e8f6cd9	0.28012732
84	0x3e0d79b0	0.13815951
85	0xbc3ff7ab	-0.0117167635
86	0xbefaf7f1	-0.4901729
87	0xbcd2d688	-0.025737062
88	0x3e94255d	0.28934756
89	0x3e791a19	0.24326362
90	0x3d8521e0	0.06500602
91	0x3eaf9f4d	0.34301224
92	0xbe3243fc	-0.17408746
93	0x3e1fbb6f	0.15598844
94	0xbe0e4696	-0.13894114
95	0x3e4a5d99	0.19762267
96	0x3e84b201	0.25917056
97	0xbe49c4ef	-0.1970403
98	0x3e4b97f1	0.1988218
99	0xbea6f774	-0.32610667
100	0x3e803d23	0.25046644
101	0x3e3ecc94	0.18632728
102	0xbecaae39	-0.39586046
103	0xbe210165	-0.15723188
104	0x3e12de8a	0.14342704
105	0x3e9b01c1	0.30274776
106	0xbeaf9ace	-0.34297794
107	0xbea1d9a4	-0.3161136
108	0x3e98f685	0.2987558
109	0xbe2d59db	-0.16928808
110	0x3e5c3bcb	0.21507184
111	0x3dcef1b5	0.10104696
112	0x3ddde2da	0.10834284
113	0x3ea1f103	0.3162919
114	0x3e01d72a	0.12679735
115	0xbe983bda	-0.29733163
116	0x3e6be0b5	0.23034938
117	0xbebdcf99	-0.37072447
118	0x3de211a0	0.11038518
119	0xbeb98221	-0.36232093
120	0x3eacf0b9	0.33777407
121	0x3dfdd568	0.1239422
122	0x3e8f2045	0.27954307
123	0xbeed9b0d	-0.46407357
124	0x3de967fa	0.11396785
125	0x3e3adcb8	0.1824826
126	0x3e7951ee	0.2434766
127	0xbe194aed	-0.14969988
128	0xbe947d4c	-0.29001844
129	0xbe716a3d	-0.23575683
130	0xbe25d787	-0.16195498
131	0xbe7d0bba	-0.24711505
132	0xbe907c9e	-0.28220075
133	0x3e53b309	0.20673765
134	0xbdb52d5d	-0.08846543
135	0x3e96ad8e	0.29429287
136	0x3d4dc289	0.05023435
137	0xbe393ff5	-0.18090804
138	0x3e904a83	0.28181848
139	0x3b9307dc	0.004487021
140	0xbec18a82	-0.37800986
141	0x3e213d24	0.1574598
142	0xbd5d84e4	-0.054081813
143	0x3e15bf29	0.14623703
144	0x3cf91483	0.030405289
145	0xbe5ef310	-0.21772408
146	0xbd1185f7	-0.03552815
147	0xbeb38f2f	-0.35070178
148	0xbe76b889	-0.24093832
149	0x3bc4cd51	0.006005921
150	0x3eda35d8	0.42619205
151	0xbf160feb	-0.5861804
152	0xbea93fe8	-0.3305657
153	0x3e7dc47c	0.24781984
154	0xbe7dee69	-0.24797978
155	0xbd65a342	-0.056063898
156	0x3eae07ce	0.3399033
157	0x3eb3a002	0.35083014
158	0xbe3d8f27	-0.1851164
159	0xbde9b272	-0.11410989
160	0xbea4743b	-0.32119927
161	0xbd97052c	-0.07374033
162	0xbe3e9648	-0.18612015
163	0xbdc18933	-0.09449997
164	0xbe8bdd43	-0.27317247
165	0x3ea689fd	0.32527152
166	0xbea680ad	-0.32520047
167	0xbe32278f	-0.17397903
168	0x3e39a86a	0.18130651
169	0xbe4f3d7a	-0.20238295
170	0x3e2404a4	0.16017395
171	0x3e23746a	0.15962377
172	0x3d60c55d	0.05487572
173	0xbe73d9f6	-0.23813614
174	0xbedb799c	-0.42866218
175	0xbe841d54	-0.25803626
176	0xbe22d96d	-0.15903254
177	0x3e533612	0.20626095
178	0x3ead5f2b	0.3386167
179	0x3dbc1da8	0.09185344
180	0xbe50df33	-0.20397644
181	0xbecce146	-0.4001562
182	0x3eb1a132	0.34693295
183	0xbeb01415	-0.3439032
184	0xbe677d9c	-0.2260651
185	0xbd626af6	-0.055277787
186	0xbeaeec5b	-0.341647
187	0x3d94e6bc	0.072705716
188	0xbe3cb257	-0.18427406
189	0xbe9fa5e4	-0.31181252
190	0x3dd47444	0.103737384
191	0xbec63e39	-0.38719347
192	0x3d57d8be	0.052696936
193	0xbdfe5950	-0.12419379
194	0xbe823fcb	-0.25439295
195	0x3e1699aa	0.14707056
196	0x3ec47150	0.383677
197	0xbeaa393c	-0.3324679
198	0xbe7b845a	-0.24562207
199	0xbd94516b	-0.07242092
200	0xbe4dda59	-0.20102824
201	0xbe9d1cf4	-0.30686152
202	0xbe1ebdd8	-0.15502107
203	0xbeb1ecb8	-0.34750915
204	0xbed6e413	-0.41970882
205	0xbebf1fd3	-0.37328967
206	0x3da8b62b	0.08237871
207	0xbeb079b4	-0.34467852
208	0xbd72afed	-0.059249807
209	0x3ebbd8e2	0.36688906
210	0xbee12aa6	-0.4397785
211	0xbe5b7701	-0.21432115
212	0x3e518db5	0.20464213
213	0x3dca8192	0.09887995
214	0xbe8d55b3	-0.27604446
215	0xbe615682	-0.22005656
216	0xbe892222	-0.26783854
217	0xbe0e5ce8	-0.13902628
218	0x3dfba2f7	0.122869425
219	0x3e8830cd	0.26599732
220	0xbe87e0ec	-0.2653879
221	0xbce3a255	-0.027787367
222	0xbe80d729	-0.25164154
223	0x3eb7c128	0.35889554
224	0x3e9b38e8	0.30316854
225	0xbec6aedb	-0.3880528
226	0xbdc546ae	-0.09632622
227	0x3d8df58e	0.069316015
228	0x3e268277	0.16260706
229	0xbbac1a15	-0.0052521327
230	0x3dc873b5	0.09787694
231	0xbd465bc4	-0.04842736
232	0xbd79c486	-0.060978435
233	0x3ea8a29a	0.32936555
234	0x3eb10cbf	0.34580037
235	0xbe4ad83e	-0.19809052
236	0xbe9283a2	-0.28616053
237	0xbdb9caab	-0.09071859
238	0xbe43ff26	-0.191403
239	0xbe8e850c	-0.27835882
240	0xbec34060	-0.38135052
241	0xbdca43de	-0.09876226
242	0x3e89eaa4	0.2693683
243	0xbecc162b	-0.39860663
244	0xbe9a995d	-0.30195132
245	0xbecc3072	-0.3988071
246	0xbe40d844	-0.18832499
247	0x3e895535	0.2682282
248	0xbe44285c	-0.19156021
249	0x3f00a439	0.50250584
250	0x3c1a0b5e	0.009402124
251	0xbe5d446b	-0.2160813
252	0x3e2bf1e0	0.16791487
253	0x3e694cd8	0.2278322
254	0xbebb2180	-0.36548996
255	0xbd521c35	-0.05129643

lstm_3/lstm_cell_6/bias1 f4 [512]
0	0x3ccf9632	0.025340173
1	0x3cf98204	0.030457504
2	0xbcc4efea	-0.024040181
3	0xbd114ed2	-0.03547556
4	0x3c7a5ce5	0.015280937
5	0x3ce53685	0.027980099
6	0x3cdaca2d	0.026707733
7	0x3ca60d20	0.02026993
8	0xbc627994	-0.013822932
9	0x3b612062	0.0034351577
10	0xb6afb3e6	-5.2363494e-06
11	0x3bffe8db	0.007809741
12	0x3d1870fd	0.03721713
13	0x3d909a23	0.07060649
14	0x3d01a3e0	0.031650424
15	0x3b1d5ccf	0.0024011617
16	0xbad7f5c5	-0.0016476443
17	0x3d060a88	0.032724887
18	0x3d285ed3	0.041106056
19	0x3d545415	0.051838
20	0xbd1eca74	-0.038767293
21	0x3c896620	0.01677233
22	0x3cd56ef2	0.02605388
23	0x3d03bbc5	0.032161493
24	0xbcc03deb	-0.023467025
25	0x3a7d4215	0.0009661031
26	0xbb2fc844	-0.0026822248
27	0x3d01b16d	0.031663347
28	0x3cc0af09	0.023520963
29	0x3d58ca2f	0.052927192
30	0x3cb5d1a4	0.022194691
31	0xbd6f019c	-0.058351144
32	0x3d79675f	0.060889598
33	0x3c7e5ab3	0.015524554
34	0x3c60ea02	0.013727667
35	0x3d3df4f1	0.046376172
36	0x3b875fa8	0.004131276
37	0xbcbd2bff	-0.023092268
38	0x3d318c80	0.043346882
39	0x3b67137d	0.0035259419
40	0x3b87ceeb	0.0041445396
41	0x3d3982d2	0.045290776
42	0x3c2fea58	0.010737024
43	0xbc876c30	-0.01653108
44	0x3d10b2bb	0.0353267
45	0x3cb0304b	0.021507403
46	0x3bff6b8a	0.007794802
47	0x3d1f1045	0.038833875
48	0x3c248f7a	0.010043973
49	0x3d720282	0.059084423
50	0x3d1ca594	0.038243845
51	0x3c4b959e	0.012425808
52	0x38eb6dde	0.000112261376
53	0x3d0763fe	0.033054344
54	0xbc0bc1a3	-0.008530053
55	0x3d839400	0.06424713
56	0x3d40b0fa	0.047043778
57	0x3d1eb91c	0.038750753
58	0x3d28574f	0.04109889
59	0x3d01bd08	0.031674415
60	0x3cf0d2d4	0.029397406
61	0xbb256030	-0.0025234334
62	0x3dac6141	0.08416987
63	0x3c8e9bca	0.01740827
64	0x3d259b97	0.040431585
65	0x3c4300df	0.011902063
66	0x3d07a686	0.033117794
67	0x3b8ff455	0.0043931403
68	0x3cb04d27	0.021521164
69	0xbbfe6596	-0.007763575
70	0x3d21d5ba	0.039510466
71	0x3c4ba9b7	0.0124306
72	0x3d2ec784	0.04267074
73	0x3c214cba	0.009844953
74	0x3886d124	6.4285734e-05
75	0x3cffc2b8	0.031220779
76	0x3cda288e	0.026630666
77	0x3ca8b101	0.020592215
78	0xbc83501c	-0.01602941
79	0x3cdd5d23	0.02702195
80	0x3db5d773	0.08878984
81	0x3cb94277	0.0226147
82	0x3c823fa5	0.015899489
83	0x3d6256a9	0.055258427
84	0x3cbbb6d4	0.022914328
85	0x3c51638c	0.0127800815
86	0x3db8e96a	0.09028895
87	0xbcdb78d5	-0.026791016
88	0xbb3f5f6e	-0.0029201168
89	0x3d0f435a	0.03497634
90	0x3dcf1956	0.10112254
91	0x3d50cdf9	0.05097768
92	0x3d14ad6d	0.036298204
93	0xbc6f1db3	-0.014594483
94	0xbbaa1410	-0.00519038
95	0x3ccad361	0.024758996
96	0x3d3c2683	0.045935165
97	0x3cf69b20	0.030103266
98	0xbc2dba1f	-0.010603457
99	0xbd251210	-0.04030043
100	0x3c0fafc9	0.008769938
101	0x3bcfd0b8	0.00634202
102	0x3ce478ea	0.027889688
103	0x3d176d50	0.036969483
104	0x3b4f13c2	0.003159747
105	0xbd728cc6	-0.059216283
106	0xbc873166	-0.016503047
107	0x3c7d7bbd	0.015471396
108	0x3bda6394	0.0066647027
109	0x3c9dc0ce	0.019256976
110	0x3b9f6146	0.004863891
111	0xbcd9b374	-0.026574828
112	0x3d559513	0.05214412
113	0x3cca906e	0.024727073
114	0x3cc7872a	0.024356443
115	0x3d14ae1a	0.03629885
116	0xbc7634cc	-0.015027236
117	0x3c04595d	0.0080779465
118	0xbcaf66b6	-0.021411281
119	0x3cb15e51	0.021651419
120	0x3d650f62	0.055922873
121	0x3d12943a	0.03578589
122	0xbcc9f9fe	-0.024655338
123	0x3ca6df1f	0.020370064
124	0xbbde71bf	-0.006788462
125	0x3d2cbf01	0.042174343
126	0x3cb3df01	0.021956922
127	0x3d87bed2	0.06628193
128	0x3f843f87	1.0331887
129	0x3f856389	1.0421001
130	0x3f7fdb4a	0.99943984
131	0x3f81106e	1.0083139
132	0x3f80290f	1.001253
133	0x3f86c270	1.0528088
134	0x3f7b2da6	0.9811653
135	0x3f852383	1.0401462
136	0x3f797f58	0.97459936
137	0x3f80a065	1.0048949
138	0x3f7c12a6	0.98465955
139	0x3f82bb21	1.0213357
140	0x3f866773	1.050032
141	0x3f892f94	1.0717645
142	0x3f83bcf3	1.0292038
143	0x3f82149b	1.0162538
144	0x3f76c70d	0.9639748
145	0x3f7f3941	0.9969674
146	0x3f86f818	1.0544462
147	0x3f871e97	1.055621
148	0x3f7383a8	0.95122766
149	0x3f80aaf3	1.005217
150	0x3f7053da	0.9387795
151	0x3f7dcdd5	0.991422
152	0x3f81ddbb	1.0145792
153	0x3f8223e1	1.0167199
154	0x3f814c5b	1.0101427
155	0x3f86233d	1.0479504
156	0x3f7ab41e	0.97931087
157	0x3f87deb5	1.061484
158	0x3f80eb44	1.0071797
159	0x3f7a398f	0.9774408
160	0x3f835611	1.026064
161	0x3f859004	1.0434575
162	0x3f77af07	0.96751446
163	0x3f854cb0	1.0414028
164	0x3f7b42b5	0.9814866
165	0x3f795876	0.97400606
166	0x3f85b7f2	1.0446761
167	0x3f8174e4	1.0113797
168	0x3f7d158e	0.98861015
169	0x3f879669	1.0592777
170	0x3f868757	1.0510052
171	0x3f814ad2	1.0100958
172	0x3f80765e	1.0036123
173	0x3f8146ce	1.0099733
174	0x3f82e34a	1.0225613
175	0x3f824e42	1.0180132
176	0x3f839ad2	1.0281622
177	0x3f87c21d	1.0606114
178	0x3f80a244	1.004952
179	0x3f832336	1.024512
180	0x3f868992	1.0510733
181	0x3f87407e	1.0566556
182	0x3f7360a5	0.9506934
183	0x3f8b7937	1.0896367
184	0x3f80f9df	1.0076255
185	0x3f858846	1.0432212
186	0x3f87d5df	1.0612143
187	0x3f834889	1.0256511
188	0x3f85f847	1.0466393
189	0x3f79355f	0.9734706
190	0x3f819b5a	1.0125535
191	0x3f7fde61	0.999487
192	0x3f86abc9	1.0521175
193	0x3f8787c7	1.0588311
194	0x3f7b5b67	0.98186344
195	0x3f7bb71d	0.98326284
196	0x3f849e46	1.0360801
197	0x3f8118df	1.0085715
198	0x3f869032	1.0512755
199	0x3f824a34	1.0178895
200	0x3f856bf2	1.0423567
201	0x3f85678d	1.0422226
202	0x3f840c58	1.0316267
203	0x3f803729	1.0016834
204	0x3f87b279	1.060134
205	0x3f8601ba	1.0469277
206	0x3f7d7ae3	0.99015635
207	0x3f865bc7	1.0496758
208	0x3f87d266	1.0611084
209	0x3f814a02	1.010071
210	0x3f84d65f	1.0377921
211	0x3f870be7	1.0550507
212	0x3f803161	1.0015069
213	0x3f846fa9	1.0346576
214	0x3f81a70c	1.0129104
215	0x3f8705c8	1.0548639
216	0x3f7d9d0a	0.9906775
217	0x3f8500f8	1.0390921
218	0x3f840ab8	1.0315771
219	0x3f84ea90	1.0384083
220	0x3f813651	1.0094701
221	0x3f79258b	0.9732291
222	0x3f7d2400	0.98883057
223	0x3f7ee14d	0.9956253
224	0x3f866166	1.0498474
225	0x3f7a2ce9	0.9772478
226	0x3f7f4260	0.99710655
227	0x3f816264	1.0108151
228	0x3f7964b4	0.97419286
229	0x3f82403e	1.0175855
230	0x3f86d800	1.0534668
231	0x3f8b1b2d	1.0867668
232	0x3f83b868	1.0290651
233	0x3f81e47a	1.014785
234	0x3f804f33	1.002417
235	0x3f841376	1.0318439
236	0x3f824f3d	1.0180432
237	0x3f813965	1.009564
238	0x3f83fdea	1.0311863
239	0x3f799633	0.9749481
240	0x3f889b70	1.0672436
241	0x3f84a2fa	1.0362236
242	0x3f82e6cc	1.0226684
243	0x3f7889c0	0.9708519
244	0x3f7edab3	0.9955246
245	0x3f83aaa2	1.0286448
246	0x3f791d48	0.97310305
247	0x3f82679a	1.0187867
248	0x3f89aade	1.075527
249	0x3f815c4d	1.0106293
250	0x3f7c9a32	0.98672783
251	0x3f8536bc	1.0407329
252	0x3f8598c4	1.0437245
253	0x3f84901e	1.0356481
254	0x3f858a8e	1.0432909
255	0x3f82351c	1.0172458

while/MatMul_1 f4 [512, 128]
0	0xbc1af217	-0.009457133
1	0x3d648b77	0.055797067
2	0xbd3bbb82	-0.04583312
3	0x3c3ad51a	0.011403346
4	0x3dae800d	0.085205175
5	0xbd05c64a	-0.032659806
6	0x3cd55ee8	0.026046231
7	0x394f5cde	0.00019775654
8	0x3cf84164	0.030304618
9	0xbd093906	-0.033501647
10	0x3d6ef112	0.05833537
11	0x3d4ed2f1	0.05049414
12	0x3e0ad59e	0.13558051
13	0x3d07df44	0.033171907
14	0xbcc77397	-0.02434711
15	0xbcfbdbce	-0.03074446
16	0xbd28d08c	-0.04121451
17	0x3ce6d1f8	0.028176293
18	0x3d47ccd9	0.048779342
19	0xbddb22fe	-0.107000336
20	0xbcd8c7a9	-0.026462393
21	0xbcc98036	-0.024597269
22	0xbd9cb8f7	-0.07652467
23	0x3ca6721f	0.020318089
24	0x3cb64f86	0.022254717
25	0x3d8d34c2	0.068948284
26	0x3cbd10b8	0.023079261
27	0xbd3b2132	-0.045685954
28	0xbc93ea17	-0.018055959
29	0xbdcdb9cc	-0.100452036
30	0x3c2c6fc5	0.010524695
31	0x3cb17ac9	0.021664994
32	0xbb222b93	-0.002474521
33	0x3ce53099	0.027977275
34	0x3caaf4fc	0.02086877
35	0x3c4cfc74	0.012511361
36	0x3c8b056c	0.016970359
37	0xbc0f21ec	-0.008736115
38	0xbcc29ab1	-0.023755403
39	0x3ce22e6b	0.027610024
40	0x3cb948dc	0.02261775
41	0xbb045b63	-0.0020196072
42	0xbc861ee0	-0.016372144
43	0xbd628fb2	-0.05531282
44	0xbcc28c57	-0.02374856
45	0xbc105167	-0.00880847
46	0x3bb4618d	0.005504793
47	0xbdbcd568	-0.092203915
48	0x3d8c43a9	0.06848843
49	0x3d0e1b7f	0.03469419
50	0x3aa08747	0.0012247347
51	0x3dd7f57f	0.105448715
52	0xbdaa81e9	-0.0832556
53	0xbb94ffd4	-0.0045470987
54	0x3b86ada9	0.0041100574
55	0xbd466374	-0.04843469
56	0xbd793956	-0.060845695
57	0x3d116b93	0.03550298
58	0x3d13b7d7	0.036063995
59	0xbd009199	-0.031388853
60	0x3d22b78b	0.03972582
61	0x3c6645a3	0.014054689
62	0x3b4011be	0.002930745
63	0x3da95595	0.082682766
64	0x3c8ea86b	0.017414292
65	0x3c183190	0.00928916
66	0xbd4e90f9	-0.050431225
67	0x3afdfbce	0.0019377412
68	0x3d772b75	0.06034418
69	0xbc34081d	-0.0109882625
70	0xbd1e280d	-0.038612414
71	0x3d47d238	0.048784465
72	0x3d3071c6	0.043077253
73	0x3cbcd777	0.02305196
74	0xbc21cd43	-0.009875598
75	0x3d8b8161	0.068117864
76	0x3c3c8e55	0.011508544
77	0x3cfcce51	0.030860098
78	0x3d3d09f0	0.046152055
79	0x3bb5bab6	0.0055459393
80	0xbcb15401	-0.021646501
81	0x3c46c295	0.012131353
82	0xbca17dbc	-0.019713275
83	0x3d8bfa97	0.068349056
84	0x3cd895a9	0.026438551
85	0x3dad4d53	0.08462014
86	0x3c4fc401	0.012681008
87	0xbcf8ace7	-0.030355884
88	0x3d99cf11	0.07510198
89	0x3c835ef3	0.016036486
90	0xbc86631c	-0.01640468
91	0x3c3cd207	0.011524684
92	0xbdb501b9	-0.08838219
93	0xbc46f79c	-0.012143996
94	0xbddc1e45	-0.10747961
95	0x3c9135a3	0.017725771
96	0xbb78b726	-0.0037950962
97	0xbe078347	-0.13233672
98	0xbc983d12	-0.018583808
99	0x3c9ef474	0.019403674
100	0x3cb3df07	0.021956934
101	0xbd97ea17	-0.07417696
102	0x3d7a68d6	0.061135136
103	0xbd515cc1	-0.051113848
104	0xbb0d499b	-0.0021558765
105	0x3da77614	0.081768185
106	0x3d80307c	0.06259248
107	0xbbd66289	-0.006542508
108	0x3d30c4a0	0.043156266
109	0xbc49c991	-0.012316124
110	0xbd091074	-0.033462957
111	0x3daa8cc6	0.08327632
112	0x3c9cd1bb	0.019142976
113	0x3d34360d	0.04399686
114	0xbde731a1	-0.11288763
115	0x3ab33a4c	0.001367399
116	0x399db91b	0.00030083288
117	0xbc3051d2	-0.010761695
118	0xbdb9de4a	-0.090756014
119	0xbce11b61	-0.027478876
120	0x38b20025	8.487728e-05
121	0xbd5419c6	-0.051782392
122	0x3c3734b1	0.011181996
123	0xbcb3875f	-0.021915136
124	0xbc5a0f11	-0.013309256
125	0x3cf7a5a8	0.030230358
126	0xbce05c99	-0.027387904
127	0x3c72027f	0.014771103
128	0xbd1f7d08	-0.0389376
129	0xbdc24dcd	-0.094874956
130	0xbcc5e324	-0.02415616
131	0xbd81f60e	-0.06345759
132	0xbda78813	-0.08180251
133	0xbc26609a	-0.010154868
134	0xbd62d284	-0.055376545
135	0xbd2e9bfc	-0.042629227
136	0x3d8e4f80	0.06948757
137	0xbc7bb136	-0.015362075
138	0x3d08a172	0.03335709
139	0xbc3dd1cf	-0.011585667
140	0x3c8fb120	0.017540514
141	0xbd10b466	-0.03532829
142	0x3d8ec61b	0.06971379
143	0xbd93783f	-0.072006695
144	0xbd0d2ea1	-0.034468297
145	0x3c1fa674	0.009744275
146	0x3e0074d6	0.1254457
147	0xbd510b67	-0.051036265
148	0x3d972b2d	0.07381282
149	0x3ce8f4a9	0.028436976
150	0xbc4003a2	-0.011719616
151	0xbd8bf622	-0.068340555
152	0xbdc21467	-0.09476548
153	0x3d3fc3da	0.046817638
154	0x3bded60a	0.006800418
155	0x3b71ec47	0.0036914514
156	0x3c4a2ce6	0.012339806
157	0xbd7baedd	-0.06144606
158	0x3c4f1cee	0.012641175
159	0x3c9b8c7f	0.018987892
160	0xbc7ed394	-0.015553374
161	0x3d418ccf	0.047253426
162	0xbd76a401	-0.060215
163	0x3dc715a2	0.09720923
164	0xbc251bc7	-0.010077423
165	0xbdb04108	-0.08606154
166	0xbd337e29	-0.043821488
167	0xbbd86977	-0.0066043693
168	0x3c362b86	0.011118775
169	0xbdba60af	-0.09100472
170	0x3d77b87f	0.060478684
171	0xbd048c8b	-0.032360595
172	0xbcf99aaa	-0.030469257
173	0x3cb886a9	0.022525148
174	0xbd583a8d	-0.052790213
175	0xbcea8950	-0.028629929
176	0x3c834da2	0.01602823
177	0xbc931bca	-0.017957587
178	0xbcdf8028	-0.02728279
179	0xbd8e516c	-0.06949124
180	0xbd9860e1	-0.07440353
181	0xbd6dade8	-0.058027178
182	0xbd63c6be	-0.055609457
183	0x3d07695f	0.033059474
184	0x3d14cf1b	0.036330324
185	0x3d800e2c	0.06252703
186	0x3c71e11c	0.014763143
187	0xbc5738e6	-0.013136124
188	0x3d561eb3	0.05227537
189	0x3d90eec0	0.07076788
190	0xbd52c951	-0.05146152
191	0xbd91bd07	-0.07116132
192	0x3cb75a96	0.022382062
193	0xbc88156a	-0.016611774
194	0x3d8bf8d5	0.0683457
195	0xbbf95b79	-0.0076097813
196	0x3cd2d339	0.025735484
197	0xbd86cf54	-0.065825135
198	0xbc1baadc	-0.009501185
199	0xbcd799f1	-0.026318522
200	0xbdc7d9cb	-0.097583376
201	0x3cd92e99	0.026511477
202	0xbcf33180	-0.02968669
203	0x3d2a245a	0.041538574
204	0x3ce31208	0.027718559
205	0x3c004549	0.007829019
206	0x3bf9e0af	0.0076256613
207	0x3c79f6f1	0.015256629
208	0x3c1ac87c	0.009447213
209	0x3bcaa415	0.006184111
210	0xbb5b4f78	-0.0033464115
211	0xbdee0785	-0.11622528
212	0xbd2b69e5	-0.041849036
213	0x3d55a0ca	0.052155294
214	0xbdae2e4b	-0.085049234
215	0x3d0638cf	0.03276902
216	0x3d899eb5	0.06719724
217	0xbc03761f	-0.008023768
218	0x3d52fb6a	0.0515093
219	0x3dd3e616	0.1034662
220	0xbd22bbc5	-0.039729852
221	0x3c63c37a	0.013901586
222	0xbd997ff8	-0.07495111
223	0xbd5512b4	-0.05201979
224	0xbc03c5b1	-0.008042739
225	0xbc914b3a	-0.017736066
226	0xbada392f	-0.0016649122
227	0xbd279766	-0.04091587
228	0x3c920a2e	0.01782712
229	0xbc5795ce	-0.013158275
230	0xbba88ff8	-0.0051441155
231	0x3d1f1632	0.038839526
232	0xbda41479	-0.08011717
233	0xbbf33f4f	-0.0074233185
234	0x3c675ddb	0.014121498
235	0x3d403529	0.046925697
236	0x3703ce79	7.856282e-06
237	0xbcd88ee6	-0.026435327
238	0xbd59fdae	-0.053220443
239	0x3d728eea	0.059218325
240	0xbb0a2aab	-0.002108256
241	0xbdc433e0	-0.09580207
242	0xbc83905d	-0.016060049
243	0x3bea4200	0.007148981
244	0x3dbffe70	0.09374702
245	0x3d00b721	0.031424645
246	0xbd1e806e	-0.0386967
247	0xbda1fcdb	-0.079095565
248	0x3b7ab06c	0.0038252128
249	0x3d8bebcc	0.06832084
250	0xbc9c2ae9	-0.01906343
251	0x3cf131e1	0.02944273
252	0x3c4b156f	0.012395247
253	0x3b8bc21a	0.004265082
254	0xbc98a7b0	-0.018634647
255	0x3cf0113f	0.029305099

while/MatMul f4 [512, 13]
0	0xbdf1aab3	-0.118001364
1	0x3d72fba7	0.059322026
2	0x3da47435	0.08029977
3	0xbd82e8cb	-0.06392058
4	0xbd842ac2	-0.06453468
5	0x3d3f2d06	0.046673797
6	0xbdb4aa67	-0.08821564
7	0xbd501255	-0.050798733
8	0x3dad2fef	0.08456408
9	0x3d10718b	0.035264533
10	0xbd99e291	-0.07513917
11	0xbda93940	-0.08262873
12	0x3d85ca20	0.06532693
13	0x3d0d1f9f	0.034453984
14	0x3db7df41	0.08978129
15	0xbdcb19f7	-0.09917062
16	0xbddff5ca	-0.109355524
17	0xbd947349	-0.072485514
18	0xbdbc967a	-0.092083886
19	0xbdcc630d	-0.0997983
20	0x3d2faaa1	0.042887334
21	0xbdda00e7	-0.10644703
22	0x3d26ddcf	0.040738877
23	0xbd2fa5a8	-0.04288259
24	0xbdb69939	-0.08915944
25	0x3c36affc	0.011150356
26	0xbce6adf5	-0.028159121
27	0xbe02347e	-0.12715337
28	0xbe111161	-0.14166786
29	0xbdbdcc98	-0.09267539
30	0x3da5650f	0.08075916
31	0x3e3011d8	0.17194307
32	0xbde9390c	-0.11387834
33	0x3ce2232c	0.027604662
34	0xbd2db0bf	-0.042404886
35	0xbb99d692	-0.004694768
36	0x3e186f09	0.14886107
37	0x3d1f5130	0.038895786
38	0x3dbc24d8	0.09186715
39	0x3caff983	0.021481281
40	0x3d8e8ff8	0.069610536
41	0x3df0e950	0.11763251
42	0x3df3e560	0.11908984
43	0x3d014151	0.03155643
44	0xbdbf23bf	-0.0933299
45	0x3d9e6137	0.07733386
46	0xbe127403	-0.14302067
47	0xbe207cf5	-0.15672667
48	0xbd854163	-0.06506612
49	0x3c8b1ef7	0.016982539
50	0x3d8c6dae	0.06856857
51	0xbd487556	-0.048940025
52	0x3d7bfb04	0.061518684
53	0x3d09be84	0.033628955
54	0xbd81cff5	-0.06338493
55	0x3db0df25	0.086363114
56	0x3df45ce1	0.11931778
57	0xbdf2e7dc	-0.1186063
58	0xbdb969f8	-0.09053415
59	0xbcf1daab	-0.029523214
60	0xbe246da6	-0.16057453
61	0xbe078727	-0.1323515
62	0x3e5f4e27	0.21807157
63	0x3ce4665e	0.027880844
64	0x3c831f23	0.016006058
65	0xbdc1c1b5	-0.09460775
66	0x3cd4ad70	0.025961608
67	0xbceb5838	-0.02872859
68	0xbd65dfda	-0.056121685
69	0xbda96a3f	-0.08272218
70	0xbb5d1b48	-0.0033738185
71	0x3c5a23bf	0.013314187
72	0x3d66ec19	0.056377504
73	0xbcb2dcb5	-0.021833757
74	0xbd284369	-0.041079912
75	0x3de42e31	0.11141623
76	0xbad4644c	-0.0016204207
77	0x3e0964df	0.13417386
78	0xbd9c73aa	-0.07639249
79	0x3db7cd40	0.08974695
80	0x3d48c9a2	0.049020417
81	0x3d759c45	0.059963483
82	0x3ae58aa1	0.0017512628
83	0xbac78e97	-0.001522499
84	0x3dd866be	0.105664715
85	0x3d901c3c	0.07036635
86	0x3bb6548b	0.0055642775
87	0x3b3efa2b	0.002914081
88	0x3dc6a0fe	0.096986756
89	0xbbfd9dc1	-0.007739753
90	0x3d60af7b	0.05485485
91	0xbc9e1858	-0.019298717
92	0xbe084cef	-0.13310598
93	0xbc642a4f	-0.013926103
94	0x3dbd5933	0.09245529
95	0xbdb251da	-0.08707018
96	0x3d715f37	0.058928695
97	0x3da6e278	0.08148664
98	0x3d9c982c	0.07646212
99	0xbc99e264	-0.01878471
100	0x3c5e5fee	0.013572676
101	0x3db708aa	0.089371994
102	0x3b8e291f	0.004338398
103	0xbcdd494a	-0.027012486
104	0xbbf772a6	-0.007551509
105	0xbdd7528c	-0.105137914
106	0xbe085d56	-0.13316855
107	0x3d1ba8be	0.038002722
108	0xbe57328d	-0.21015377
109	0x3dbb9615	0.09159485
110	0xbc0cd6ae	-0.0085961055
111	0xbcb12efd	-0.021628851
112	0xbdd12c50	-0.1021353
113	0xbd760155	-0.060059864
114	0xbda6a6f2	-0.08137311
115	0xbdb5bdf8	-0.08874124
116	0xbe21a278	-0.15784633
117	0xbdd536a9	-0.10410816
118	0x3b67eef6	0.0035390235
119	0x3cd1dc04	0.025617607
120	0x3dbec916	0.09315698
121	0xbd9a439d	-0.075324275
122	0xbd08ef3e	-0.033431284
123	0xbc87a31a	-0.016557265
124	0x3da772cc	0.08176193
125	0xbdbf5ac1	-0.09343482
126	0xbd9ee652	-0.07758774
127	0x3ddb3cb8	0.107049406
128	0xbcb0f525	-0.021601269
129	0x3cd0d5e0	0.025492609
130	0x3b22ffd8	0.0024871733
131	0x3db1492b	0.08656534
132	0x3c9bfee5	0.019042442
133	0xbbb8c74d	-0.005638993
134	0xbe38d54c	-0.18050116
135	0xbccf8711	-0.02533296
136	0xbdb7a0ae	-0.08966194
137	0x3d8c463a	0.06849332
138	0x3d08668a	0.033300914
139	0xbde5593a	-0.11198659
140	0x3d1efcc5	0.03881528
141	0xbdb43bf6	-0.08800499
142	0xbe251824	-0.1612249
143	0x3dd7c50b	0.1053563
144	0x3da9cc45	0.082909144
145	0xbd2349b9	-0.03986523
146	0x3d041dac	0.03225486
147	0xbdb04456	-0.08606784
148	0x3cecfff0	0.028930634
149	0xbd54737e	-0.051867954
150	0xbd4f6af3	-0.050639104
151	0x3d3af60e	0.045644812
152	0xbc6a3eef	-0.014297231
153	0x3db017ea	0.08598311
154	0xbcf9a1dc	-0.030472688
155	0x3d66bc2f	0.05633181
156	0x3d2d92c1	0.042376284
157	0xbd7ea0de	-0.062165134
158	0x3dfa0981	0.12208844
159	0x3dd54303	0.10413172
160	0xbbda1dd7	-0.006656389
161	0x3d408ef7	0.047011342
162	0xbdd4e17d	-0.10394571
163	0x3d86db71	0.06584824
164	0x3c841111	0.01612142
165	0xbdb66b4f	-0.08907186
166	0x3c4f115f	0.012638419
167	0x3c988912	0.018620048
168	0x3d8d59f5	0.069019236
169	0x39edc46e	0.00045350514
170	0x3d846fbc	0.06466624
171	0xbdf7ae5e	-0.12093805
172	0xbca83b97	-0.020536227
173	0x3d3036eb	0.043021124
174	0x3da7fdd6	0.08202712
175	0x3e509dc6	0.20372686
176	0x3e2ec9e0	0.17069197
177	0xbd4569b6	-0.048196517
178	0x3c816702	0.015796188
179	0xbdce9333	-0.1008667
180	0xbd1023cd	-0.035190392
181	0xbbfcd780	-0.0077161193
182	0xbca4cf88	-0.02011849
183	0xbc0fde27	-0.008780993
184	0x3ba78e5b	0.0051134056
185	0x3de15004	0.1100159
186	0x3dfb7e96	0.12280004
187	0xbc80c3d9	-0.015718387
188	0x3c26a339	0.010170751
189	0x3df9c1cc	0.12195167
190	0x3dd3956a	0.10331233
191	0xbd5e2cf2	-0.054242082
192	0xbcc13570	-0.023585051
193	0xbcfe5c88	-0.031049982
194	0xbd87d02a	-0.06631501
195	0xbd1f6501	-0.038914684
196	0xbd99e210	-0.07513821
197	0xbcb08432	-0.02154741
198	0xbd1ff416	-0.039051138
199	0x3dec731d	0.115453936
200	0xbcd91bf6	-0.02650259
201	0xbe14b865	-0.14523466
202	0x3da2320f	0.07919704
203	0xbe2a2243	-0.16614632
204	0x3d50c5df	0.050969955
205	0x3b7013d1	0.0036632905
206	0xbc84e147	-0.016220702
207	0x3d8dc2c3	0.069219135
208	0xbd546422	-0.051853307
209	0xbc2b8107	-0.010467774
210	0x3ba596ea	0.0050533907
211	0x3e09860f	0.13430046
212	0x3aea6e52	0.0017885661
213	0x3e375364	0.17902905
214	0xbda64bc6	-0.081199214
215	0xbd64b400	-0.055835724
216	0xbd69774a	-0.05699853
217	0x3d34a71b	0.044104677
218	0xbc92b6c8	-0.017909423
219	0xbd2ab2bb	-0.041674357
220	0x3e02cded	0.12773867
221	0x3d97eff9	0.07418818
222	0x3d20a8d6	0.039223514
223	0x3d7f2fc8	0.062301427
224	0x3e0c9545	0.13728817
225	0x3d6d413e	0.057923548
226	0xbd687662	-0.056753524
227	0xbe270e6f	-0.163141
228	0xbd16983b	-0.036766272
229	0xbd3efbcd	-0.046626855
230	0x3d8ce1ac	0.06878981
231	0x3d09bcf1	0.033627454
232	0xbda192f2	-0.07889356
233	0xbc9770e2	-0.018486444
234	0x3d335b3d	0.043788183
235	0xbd9f2f78	-0.07772726
236	0xbce107ad	-0.02746948
237	0xbcd97cb8	-0.026548728
238	0xbaaa1917	-0.0012977448
239	0xbd01c677	-0.03168341
240	0x3d886b69	0.06661112
241	0x3c2b7e8c	0.010467183
242	0xbd758159	-0.05993781
243	0x3dd07ce0	0.10180068
244	0xbe2a81c3	-0.16651063
245	0x3d5baa6d	0.053629328
246	0xbdf3956d	-0.11893735
247	0xbdc8c60d	-0.098034
248	0xbcd7da39	-0.026349174
249	0xbbc3a7cd	-0.005970931
250	0x3cf19f75	0.02949498
251	0xbd9f4f0c	-0.07778749
252	0x3af1b37d	0.0018440332
253	0x3d970eeb	0.07375892
254	0xbda12278	-0.078679025
255	0xbe24ed45	-0.16106136
